weight/quantlenet.pt (torch, 274093 bytes, 9 tensors)

conv1.weight f4 [6, 3, 5, 5]
00000000: db93 fabd 1fa5 20be 972a fcbd 6423 70be
00000010: 6034 5abe 97c7 64bd 1752 38be 212b d6bb
00000020: 899e ba3d bdda 1b3e 4cef bf3d 8d76 e43d
00000030: 5d8e 6b3e 93cb 0f3e 635c b63d d18b 333e
00000040: 6cf5 e53d 2f3d 223e 5b8a 333e 62e1 fa3d
00000050: 6f74 1d3d 164b f83d eacb bd3d e162 1d3e
00000060: 1e33 9abc 12dc 6d3e c9fd 433d 0dc2 f2bd
00000070: 6d40 14be 2d78 a13d 0f13 9fbc b2d6 56bd
00000080: a988 c0bd ac11 2e3e 5f5a 423d 13d1 3cbe
00000090: 30e3 1b3d ecbd 8a3d a9e2 d03d 4364 5c3d
000000a0: d706 aebd 2fd2 d73c d073 d3bd 7c0b 61bd
000000b0: 2618 35bc f19a 653c 8db7 19bd 8e4d adbd
000000c0: 6b29 1ebe 9752 91bd 211a b03d 5f13 5ebd
000000d0: 83b2 debc 83bb 1abd 6121 fb3d 0d49 5dbe
000000e0: ed49 34be 7b83 7ebc 79d1 723e 0310 ec3d
000000f0: 413e 71be 9fcb 21be c4e8 3a3e 7ab9 203e
00000100: 3db4 e83d e5e3 44be 461f 3f3d 6969 453e
00000110: 6d52 92bd c493 4a3e 7330 e2bd 161b 563d
00000120: 8c92 ae3d 6242 673d 6b66 70bc d0b4 56bd
00000130: 804e 763e 0851 723e 3833 6e3e d6a3 2d3e
00000140: 1979 ae3c 0fd2 793e 73fd 753e edc7 05bc
00000150: ef3b 383e b127 db3d 8f7d 793e 15cb d23c
00000160: b102 10be 1117 8a3c 7b37 2b3b 3e54 753e
00000170: 0d08 05be 1da2 c4bd 693c 5ebd 2433 f4bd
00000180: 218e 69bd 7743 76be 880a 4d3d 3843 c2bd
00000190: 54ac d7bd 3ec5 71be 7869 71be 8bbb 71be
000001a0: 3425 75be 756c a0bd 84e0 bc3c 6c89 71be
000001b0: 0199 76be 87bb 72be 2510 4f3d 7222 d23d
000001c0: d81d 71be af1b 77be b752 29bd 70d9 bc3d
000001d0: b72e b3bc 6166 76be 8053 66be f8ac 5c3e
000001e0: 1126 f83d f153 503c e166 75be 6802 23bd
000001f0: 8d5d 0e3e d4a6 b93d 1400 413e 803c 1e3e
00000200: 6dec ccbd 4532 b9bc 503c 2a3d 59d7 523e
00000210: 540e 7d3d 30cb 73be ebdc ccbd dc30 1a3d
00000220: 9496 783e f178 6dbe f877 74be a2f4 cf3d
00000230: f5cc d53d e057 213e 0a96 74be e7cb 6ebd
00000240: 5915 733e 0e53 9e3c 6b52 fb3d ed00 b7bc
00000250: 18c9 663d b0da 0b3e faf7 f6bd d5a2 9a3d
00000260: 0d8a ad3d 719f 0bbd f325 19bc 7daf d73d
00000270: 60a4 f9bd 3750 c9bc 5013 553d 58aa f8bd
00000280: 5a5b 033e bea7 76be b199 9cbc ee0f 723e
00000290: 5792 8dbd b1b7 a03d 15fd 76be 33d1 c83d
000002a0: 6ea9 773e 501e 47be ed12 f33d 90f3 76be
000002b0: 8de5 b13d 9d23 783e e304 6ebe d515 643d
000002c0: 256f 033e 78b0 17bd e3d6 b33d 7257 ddbc
000002d0: deb1 763e f24d 2dbe aa5e aabc 4528 433e
000002e0: 5cd8 a83c ce08 743e 0b65 78be c7bc 1fbe
000002f0: 9e03 763e f93a 7abc 39d1 693e da60 77be
00000300: 4fc9 533d 65a8 763e 3f03 23be ed37 8b3c
00000310: ebd8 76be 650a 44bb aded 753e 739e eebd
00000320: 5453 b4bd ee4c 55bd eb80 febd 0ffe 493d
00000330: 1ee6 aebc 4d4e eeba 599e 29be 0c36 c6bc
00000340: a282 8c3c 46b4 c4bc 4757 e93d 5160 75be
00000350: 03b6 913d aa90 2d3e a4c7 78bd b05a 943d
00000360: e819 76be e91e b73d e4b2 763e 249b babd
00000370: 6882 453e 81a2 74be 1c0c 59bd 9b80 783e
00000380: 59f8 38be 9013 cd3d 31d8 6c3e 9560 733e
00000390: 9fb8 a33d 5b94 273c 3339 9f3d 2d1e 2c3e
000003a0: dce6 233e e2e3 5a3e 5d0c 693e 20cc b5bd
000003b0: 68b6 6bbe 345b 70be 1b7c 71be 4383 50be
000003c0: f747 aebd 9a21 72be e148 75be 1ac8 20be
000003d0: 219b ed3d a4e1 88bc d91f 423e 88ce 4e3d
000003e0: 9fd6 69bc 16f8 57bd e3fa 10be 97c5 5b3e
000003f0: 6191 763e 7f11 183e 50f3 a93d 7e79 abbd
-0.122352324 -0.15687989 -0.12312811 -0.23451 -0.21309042 -0.055854406 -0.18000065 -0.006535903
0.091122694 0.15220161 0.09371814 0.11155424 0.23003526 0.14042501 0.0890434 0.17533804
0.11228451 0.15843652 0.17533247 0.122500196 0.038441118 0.121236965 0.09267409 0.1536975
-0.018823203 0.23228481 0.04784945 -0.118534185 -0.14477701 0.0788425 -0.019418268 -0.052450843
-0.09401066 0.16998929 0.047449466 -0.1843913 0.03805846 0.06774506 0.10199482 0.053806555
-0.08497398 0.02634534 -0.10324824 -0.054942593 -0.011053121 0.014013992 -0.037528563 -0.08462058
-0.15445487 -0.07095831 0.08598734 -0.054217692 -0.02718473 -0.03777648 0.12262226 -0.21609898
-0.17606325 -0.015534277 0.2371272 0.115264915 -0.23558904 -0.15800332 0.18252856 0.15695754
0.11362503 -0.1922756 0.046660684 0.19278492 -0.07144628 0.1978293 -0.11044397 0.052271925
0.08524045 0.056459792 -0.014672856 -0.05241853 0.24053383 0.23663723 0.23261726 0.1695703
0.021297978 0.24396537 0.24022464 -0.008165342 0.17991613 0.1070093 0.24364303 0.025731603
-0.14063527 0.016856702 0.0026125598 0.23957917 -0.12991352 -0.09601233 -0.05425683 -0.11923817
-0.05702031 -0.24049173 0.05005887 -0.09485477 -0.10530916 -0.23610398 -0.2357539 -0.23606698
-0.23939973 -0.078331865 0.023056276 -0.23587579 -0.24081804 -0.23704349 0.050552506 0.10260476
-0.2354654 -0.24131654 -0.04133865 0.092211604 -0.021872861 -0.24062492 -0.2249279 0.21550357
0.121166356 0.012715326 -0.23965026 -0.039797217 0.13902874 0.09065023 0.18847686 0.15452766
-0.10006032 -0.022606978 0.041561425 0.20589961 0.061781242 -0.23807979 -0.10003074 0.037644252
0.24276191 -0.23190667 -0.2387389 0.10154082 0.10439483 0.15756178 -0.2388536 -0.058299925
0.23738612 0.019326713 0.12271579 -0.022339309 0.05634412 0.13657641 -0.120590165 0.07550589
0.08473597 -0.034087602 -0.009347427 0.105315186 -0.12189555 -0.024574382 0.05202037 -0.121418655
0.12827817 -0.24087426 -0.019116255 0.23638889 -0.06912678 0.07847536 -0.2411998 0.098055266
0.24185726 -0.19445157 0.11868844 -0.24116349 0.086863615 0.24232335 -0.23244052 0.055684883
0.12835367 -0.037033528 0.08781221 -0.027019236 0.24091288 -0.16924265 -0.020797092 0.1905833
0.02061098 0.23831484 -0.24257295 -0.15599357 0.24024817 -0.015272849 0.22833718 -0.2415804
0.051705655 0.24087675 -0.15919207 0.01699444 -0.24106185 -0.0029913422 0.24016447 -0.116513155
-0.08804956 -0.05207532 -0.12426933 0.049314555 -0.021349963 -0.0018181294 -0.16564311 -0.024195693
0.017152134 -0.024011742 0.113936 -0.23962523 0.07114794 0.16949716 -0.060737267 0.0724386
-0.2403332 0.089414425 0.24091679 -0.09111622 0.19288027 -0.23890115 -0.052990064 0.24267809
-0.18063487 0.10013497 0.23129345 0.23767312 0.07994198 0.010228242 0.07774582 0.16808386
0.16006035 0.21375993 0.22758622 -0.088768244 -0.23018801 -0.23472291 -0.23582499 -0.20362572
-0.0850982 -0.2364563 -0.23953582 -0.15701333 0.11601854 -0.016709156 0.18957461 0.050489932
-0.014272361 -0.052726828 -0.14158206 0.21462093 0.24078895 0.14850424 0.08298361 -0.08372782

conv1.bias f4 [6]
00000000: 59e3 96bd b5bd eebd 36f5 9ebd 5ab5 51be
00000010: 8f67 af3e 8161 6b3b
-0.07367582 -0.116572775 -0.07761614 -0.20479336 0.34258696 0.003591627

conv2.weight f4 [16, 6, 5, 5]
00000000: 9172 70bd 1a7d 4e3e 398b 82be 3a0e b9bd
00000010: 9cc1 df3d 2989 063e e6ad 823d b669 3bbe
00000020: 8bbd 343d 8175 36bd f38f be3c 9990 f5bd
00000030: c2a3 8cbd e077 d4bc bc83 06be 9835 0bbd
00000040: 4b76 89bd 3b56 493c 6d7d a23d eda0 aa3d
00000050: f2c5 7e3e df94 d43d e4dc 75be b2c3 583e
00000060: 9d6e 143e 6bbf 7abe 7bde f4bd 91c1 5abc
00000070: a02a dcbd 619f 3dbd 03c2 183d f40a 9f3c
00000080: dc80 ec3d 8966 19be ed71 8ebe 77a1 9a3e
00000090: 8ee7 28be 88b1 8abe 98a9 90be 1003 21bd
000000a0: 72fb ef3d f845 9e3d fb10 94be 976e 6bbc
000000b0: 11a3 e83a b34b 243e f69e 823e 6f94 a33c
000000c0: 7ab1 fbbd 0d23 433e 082d 46be d55b 72bd
000000d0: 74b9 1e3d 7631 463e 29c2 d13d 5a99 903d
000000e0: 0905 713d 2eb2 24be 78b3 d1bc 5ce4 e03d
000000f0: cd04 173e d309 243e 6544 9c3d bea3 903d
00000100: c62a 19be d6d1 cc3d fd1a 9bbd a1ed 6dbd
00000110: 5602 673e 816c 38bb d526 56bc 7f3e 14bd
00000120: 5d88 673c bea8 da3d 22ed 74be 2b68 ddbc
00000130: b62e 3ebe 90b7 96be cd18 92be 1ce0 93be
00000140: e34c 173e 6f0a 25be e439 8abe af11 8fbe
00000150: 43ff 93be 9777 d13d f134 60bd 6187 90be
00000160: c6a2 97be d679 99be dd59 623c 1259 d83d
00000170: b8a3 8ebe 5558 98be a1f3 94be 1d75 0b3e
00000180: 8840 42be ed2c 22bd 2f78 06bd 8c54 6cbe
00000190: f4d0 9b3d d04e 803d 9623 c03d 3e9e 773e
000001a0: 26f7 e83d 5384 4d3d 850b a93d 39f1 97bd
000001b0: 16f8 9dbd 334b 1a3c 8317 593d 7b91 a23d
000001c0: 7ce5 8a3d eb60 40be 2728 ecbc fa34 223e
000001d0: f03d 48be 3884 f6bd 7222 dc3c 9a12 143e
000001e0: bffd 813c 0048 dbbd 53de b3bc 7416 e7bd
000001f0: ea6e b13d f844 d2bd 9db3 ecbc 35b6 91be
00000200: c34c 88be 6610 57be 61a2 833e 9151 76bd
00000210: cf07 353d ac76 48bb f56b e4bd e0af 3e3e
00000220: b12c 793e 2bea d93d afbb 83bd be47 27be
00000230: c3bd 0d3e 6ac0 193e 5d97 8b3d 2bb2 c73c
00000240: 262c 80be f141 843e 2e33 833e a636 4c3e
00000250: 2573 1d3e 8e59 abbd 193a 053e 6345 83bc
00000260: 0931 8ebe d7d0 82be fff9 e4bc 0167 8cbe
00000270: 2bf5 47be bc3e 09be cf26 abbd 7438 743e
00000280: 58b0 8dbe 02d0 c7bd c81a fb3d 3877 ccbd
00000290: 1d75 1a3c a512 6a3c 3286 1ebe 771e c4bc
000002a0: 36c6 cd3c d648 1ebe 50b6 71be efd9 873e
000002b0: b8be bbbc c4fd 3d3c 7c90 ccbd 09db 96be
000002c0: cad5 c1bd 29bd f23d 30e1 153e 01db 923e
000002d0: 3771 86be f151 653e 3e65 033e 5322 18be
000002e0: 97a3 193e 823e 553d 544c 0d3e 3374 d23d
000002f0: 6708 89bd 79e7 5a3e 3107 f9bd 4697 22be
00000300: c431 633d 33ce 613e 029f d2bd a6cf 2cbb
00000310: eaca 8cbe 42e6 fdbd 148f 213e a69f 913e
00000320: 8411 223e 8648 a8bd 5b80 97be 7703 f1bd
00000330: ad98 91be 5f12 3cbe 4a96 75be 1ee3 1ebd
00000340: ab5e 0d3e 2bdb cebd 5c67 93bd 4b79 90be
00000350: 87c6 173d ce6c 94bd c216 0e3c e0d4 ebbc
00000360: 3b22 803e 932f af3d be6a 823e cdc7 d93d
00000370: 573b 893e ffb7 473e 3d34 f83c 3677 943e
00000380: a409 c93d fe1b 23be d1e0 83bd 68fe 0b3e
00000390: 2b3e 413e 5d91 1abe c686 4e3e 6031 f13d
000003a0: 7ab9 7b3d 6238 84bc a739 dfbd dd1d 023d
000003b0: 8bb6 ae3d 4989 a7bd fc00 6bbd ae0b 46bc
000003c0: 0d10 963e 4bfa c53c d17f 1b3d 20fb c4bd
000003d0: f625 5dbe bd9f 1e3d a9ad 74be f9cd 5b3c
000003e0: 635b 20be 33da 8fbe 691d 74be 34ce 37be
000003f0: 15c0 b1bd dc46 db3c b661 473e 0b1c 97be
-0.05870301 0.2016491 -0.25496843 -0.090359166 0.109256 0.1313826 0.06380825 -0.18302044
0.044126075 -0.044545654 0.023262 -0.119904704 -0.06867172 -0.025936067 -0.1313619 -0.033986658
-0.06712016 0.012288625 0.07934079 0.083314754 0.24880198 0.103799574 -0.24010044 0.21168402
0.1449532 -0.24487083 -0.11956497 -0.013351814 -0.107503176 -0.046294574 0.0372944 0.019414403
0.115480155 -0.1498052 -0.27821293 0.30201313 -0.16494581 -0.2708857 -0.2825439 -0.03930956
0.11717881 0.07728189 -0.28919205 -0.014369628 0.0017748793 0.16044502 0.25511903 0.01996824
-0.1228971 0.1905634 -0.19353116 -0.05916961 0.03875108 0.19354805 0.10242111 0.070604995
0.058842693 -0.16083595 -0.025598273 0.10981056 0.14747925 0.16019373 0.07630233 0.07062481
-0.14957723 0.100009605 -0.07573507 -0.05808795 0.22559485 -0.0028140845 -0.013070782 -0.036192413
0.014131633 0.10676716 -0.23918584 -0.02702721 -0.18572506 -0.29436922 -0.28534546 -0.2888192
0.14775424 -0.16117261 -0.26997292 -0.2794318 -0.28905687 0.10227888 -0.05473799 -0.28228286
-0.29616374 -0.29975766 0.01381537 0.10563864 -0.27859282 -0.29754892 -0.29092124 0.13618894
-0.18969929 -0.039593626 -0.03282946 -0.23079127 0.07608214 0.06265032 0.093817875 0.24181458
0.11375265 0.050175022 0.0825415 -0.074190564 -0.07713334 0.009417343 0.05300094 0.079379044
0.06782052 -0.18786971 -0.02882774 0.15840521 -0.19554877 -0.120369375 0.026871894 0.14460221
0.015868066 -0.10707092 -0.021956598 -0.112835795 0.08663733 -0.10267061 -0.02889424 -0.28459325
-0.26621065 -0.2100235 0.25709823 -0.06013638 0.0441969 -0.0030588312 -0.11153404 0.18621778
0.24333455 0.10640367 -0.06432282 -0.16335961 0.1384192 0.15014806 0.0681598 0.02437695
-0.25033683 0.2583156 0.25624985 0.19942722 0.15375955 -0.083666906 0.13010444 -0.016024297
-0.27771786 -0.25549957 -0.027951239 -0.27422336 -0.19527118 -0.13402838 -0.083570115 0.2384966
-0.27673602 -0.09756471 0.122609675 -0.09983677 0.009427336 0.014286672 -0.15480879 -0.023940308
0.025118928 -0.15457472 -0.23604703 0.26533458 -0.02291809 0.011596147 -0.09988496 -0.29463986
-0.09464605 0.11852486 0.14636683 0.28682712 -0.2625825 0.2239454 0.1283159 -0.14856844
0.15003811 0.052061565 0.13798648 0.102760695 -0.06691056 0.21377362 -0.12159575 -0.15878019
0.055467382 0.22051315 -0.102842346 -0.0026368885 -0.2749856 -0.12397434 0.15777236 0.28442115
0.15826994 -0.08216958 -0.29590115 -0.11768239 -0.28436795 -0.18366383 -0.23983112 -0.038790815
0.13805644 -0.10100397 -0.071974486 -0.2821754 0.037054565 -0.07247315 0.008672418 -0.02878803
0.25026116 0.08553996 0.25472063 0.10633812 0.26803085 0.19503783 0.030298347 0.289972
0.09816292 -0.15928647 -0.06439365 0.13671267 0.18871371 -0.15094514 0.201686 0.11776996
0.06145618 -0.016140167 -0.10899668 0.03176676 0.08530911 -0.08180482 -0.057373986 -0.012087746
0.2930912 0.0241672 0.037963692 -0.09618211 -0.21596512 0.038726557 -0.23894371 0.013415807
-0.15659861 -0.2809616 -0.23839344 -0.17949754 -0.08679215 0.026767187 0.19470868 -0.29513583

conv2.bias f4 [16]
00000000: 042c a93d dea4 f03d ad03 2fbf 8871 b5be
00000010: fe8f f5bd acde cdbe a485 74be ebc3 2c3f
00000020: 20a4 2cbf ffe0 43be d3f1 b3bd 193a 5a3e
00000030: be13 08be 349d 01be cc79 b13d 530a 0dbe
0.082603484 0.11750196 -0.68364984 -0.3543818 -0.11990355 -0.40208948 -0.23879105 0.6748645
-0.67437935 -0.19128798 -0.08786359 0.21311225 -0.13288781 -0.12657624 0.08665809 -0.1377347

fc1.weight f4 [120, 400]
00000000: d75f c3bd 9938 9f3d 6cc5 803c 1cfe ad3e
00000010: 628e bb3e e19b 0fbd 6156 c63b e493 b3bd
00000020: 37ed fe3d 70e8 2c3e a775 1c3d 8c54 d2be
00000030: fe04 053d ed32 933e e148 36bb d974 b53e
00000040: 8c79 6a3e 3d8c 9dbc aac6 153e f329 ab3e
00000050: 90d7 433d fd54 12be aee0 273e 191e 04be
00000060: 9b52 3abd b16f d93e 11e2 30be 6727 95bd
00000070: f27b 0abd 07ef b2be 6e35 9fbd ae45 2bbd
00000080: 2a1f 623d 6635 963e 46e9 143e b478 213e
00000090: 9b64 a63e e128 ba3e 54fd 43be c492 d63e
000000a0: 5242 2fbe 027d 22bd bb76 153e c6ff 7e3e
000000b0: ff8b acbb af92 e53d 46aa d3be 191b 903e
000000c0: 48c6 38bb 1c02 8c3d da03 de3e 52a6 f13d
000000d0: b8fe 613c 11c5 a9be 5c37 b1be 589f 82be
000000e0: 8dab d5be 1ed8 afbe 54f5 31be 9e14 cf3e
000000f0: aa52 b3be 5687 3bbc 7d21 f43d 72ad 2ebc
00000100: aa3b 653e 6960 d1be 7e2d ae3b ef2d e4bd
00000110: 79cc c03c 964c 15bd 6fea 2abe a4dd 9dbd
00000120: 78aa b2be 9760 48be 3921 94be 0ec4 953e
00000130: 198b 28be 05a5 cbbd fb86 c4be f874 553e
00000140: ed4e 46be a470 05be 6605 dbbe 6f07 96bd
00000150: c206 2dbe 6ed9 c8be fba3 48be dfcf 4cbd
00000160: 2504 79be 04c9 98bc 776b 113d da90 1cbe
00000170: 3c05 00be 6484 32be 631a c83e fa84 be3e
00000180: 2fe5 b33d 81f7 97bd f5a2 59be 5812 a93e
00000190: e55e ddbe fa8a 683e fc26 283e a2cf 01be
000001a0: 1e46 293c a2e8 25bd ec91 bb3d fc6f 4cbe
000001b0: 18b5 3dbe 1b01 22bd 0474 09be afcd 7b3d
000001c0: b9f2 d0bd a34b ff3b 5cb3 68be 5364 973d
000001d0: 2bd8 d5be 018a 66be 5f6f 6e3e fdd7 b9bb
000001e0: e93c 3bbd 0c6d d2bd 79d9 653e 2a61 023e
000001f0: 51f2 513e b879 983c 861a 54bd b0f1 63be
00000200: 5cb1 d8be 41a7 9abe d6ea 323e 3e23 02be
00000210: 6f7e 433e aafb bc3d 44ab 0c3e 2944 003d
00000220: b1ba 89be 5c29 d1bd 8167 d4be 7f45 98be
00000230: 25cc cd3e 6820 4fbe 53cc 99bb 93d7 aebe
00000240: 0611 9abe 1821 b0bc c37d f03c 498e b73e
00000250: f208 4f3e aaa7 1a3e c37d 56be 284e 2bbd
00000260: 54f9 f03d eb70 ae3e 21a9 cd3e e9c8 7f3d
00000270: a570 533c 787a cebd c815 3abd fddf bd3e
00000280: 1876 1ebe 1673 d7bd 7a74 9abc 855a 02be
00000290: cf37 23bd 19e3 27be 9a15 0cbe e961 953e
000002a0: 6c18 55be b97c 823e 0d07 44be 8ecc 52bd
000002b0: 3fa6 8c3d 4117 0cbe 4dfe ad3c 9b57 73be
000002c0: 3c73 d23e 9cc4 8abe 90a2 d5be 11d0 28bd
000002d0: 1f32 9a3d ee5d 883e 6cd7 603e 7a3c 473d
000002e0: da2f e1bd 1b8a 2cbd 1361 093d c3a2 333e
000002f0: c5d6 d53d d045 f1bd 3d72 d3bd 5bb7 6f3d
00000300: c64c b9bd a656 323e 3581 5bbe a707 39bc
00000310: 0723 cabd a439 7fbe d9c7 b93e df06 a8be
00000320: 0433 aa3d 54a4 3c3e 8498 c9be 4d95 71be
00000330: 84bd c43c 7ae2 86bd 6d40 813e c288 e83d
00000340: 1555 ba3d 9a86 633c c49c 0c3e 3e4b bf3c
00000350: 7ed9 893c 3a3b 983d 10fe 92be 0b1a a4bd
00000360: d128 c73d 51e2 403d 357d 9c3e c6a3 043e
00000370: 9e11 df3e e503 2c3d def3 b13e 39b0 5cbe
00000380: f2d9 a0bd f822 79bd aa98 2dbd c8c9 83be
00000390: 013c 323e 5c2c ce3e 21af 2c3e 626e 843e
000003a0: 5648 21be 4e31 a93e de46 0bbe af04 5d3e
000003b0: f5cf 933c 4b8e 173e 7a10 94bc 048c 8d3c
000003c0: fcc9 c93d b178 d73d 3aa5 d8be c15e ba3d
000003d0: 0171 2c3e 9e07 f43d c459 0e3e c5a0 5f3e
000003e0: f7b3 e33c 25b2 4bbe 2129 ccbd 7ea2 053e
000003f0: d944 fdbd a969 45bd 5d5b 093d 13e8 d03d
-0.095397644 0.07774467 0.015719138 0.33982933 0.36632067 -0.035060767 0.0060527776 -0.08768442
0.12447589 0.16885543 0.03819814 -0.4108013 0.032475464 0.2874979 -0.0027814435 0.3544071
0.22897929 -0.01923191 0.14626566 0.33430442 0.047813 -0.14290233 0.16394302 -0.12902106
-0.045488935 0.42468026 -0.17273737 -0.07282906 -0.03380961 -0.34947988 -0.07773863 -0.0418145
0.0552055 0.29337615 0.14542112 0.15768701 0.3249863 0.36359313 -0.19139606 0.41908848
-0.17115143 -0.039669998 0.14596073 0.24902257 -0.0052657123 0.11209618 -0.41340846 0.28145674
-0.0028194357 0.0683634 0.43362314 0.11799301 0.01379364 -0.33158162 -0.34612548 -0.25512195
-0.41732445 -0.34344572 -0.17378742 0.40445417 -0.35024005 -0.011445841 0.1192045 -0.01066147
0.22386041 -0.40893868 0.0053154817 -0.11141574 0.023535 -0.03644999 -0.16690992 -0.0770829
-0.34895682 -0.19568096 -0.28931597 0.2925114 -0.16459312 -0.09943584 -0.38384232 0.20845401
-0.19366045 -0.1303125 -0.42777556 -0.073256366 -0.16897109 -0.39228386 -0.19593804 -0.05000293
-0.24317987 -0.01865054 0.035502877 -0.15289631 -0.12501997 -0.17433316 0.3908263 0.37210828
0.08783948 -0.074202545 -0.2125357 0.33021808 -0.4323646 0.22709265 0.16421121 -0.12676862
0.010331659 -0.04050506 0.09158692 -0.19964594 -0.18526113 -0.039551836 -0.13423163 0.061475452
-0.10202546 0.007790999 -0.2272467 0.07392182 -0.41766486 -0.22513582 0.23284672 -0.0056714998
-0.045712385 -0.10274705 0.2244624 0.12732378 0.20502593 0.018612728 -0.051783107 -0.22260165
-0.42322814 -0.3020573 0.17472395 -0.12708756 0.190912 0.092276886 0.13737208 0.031315003
-0.26900247 -0.10212967 -0.41485217 -0.2974052 0.40194812 -0.20227206 -0.004693547 -0.34148845
-0.30091113 -0.021500155 0.029356843 0.35850742 0.20218256 0.15103021 -0.20946412 -0.041822582
0.117663056 0.34070525 0.40168098 0.062447462 0.0129052745 -0.10081953 -0.04543093 0.37084952
-0.15474737 -0.10519998 -0.018854368 -0.12729843 -0.039848145 -0.16395225 -0.13680115 0.29176262
-0.20810097 0.2548578 -0.19143315 -0.05146461 0.068676464 -0.13680746 0.021239424 -0.23763888
0.41103542 -0.27103126 -0.41725588 -0.041214053 0.07529091 0.26634163 0.21957177 0.04864166
-0.10995455 -0.042123895 0.033539843 0.17542557 0.10441355 -0.11780894 -0.103245236 0.05852447
-0.090478465 0.17415866 -0.21436007 -0.011293328 -0.09869962 -0.24924332 0.36285284 -0.32817742
0.08310512 0.18422061 -0.39374173 -0.2359211 0.02401615 -0.06586166 0.25244465 0.113542095
0.09098259 0.013887072 0.13731676 0.023351308 0.016827341 0.074331716 -0.2870946 -0.0801278
0.09724582 0.047090832 0.30564275 0.129531 0.43568128 0.0419959 0.34756368 -0.21551599
-0.0785407 -0.060824364 -0.04238192 -0.25739884 0.17405702 0.4026822 0.16863681 0.25865465
-0.1575025 0.3304543 -0.13601252 0.21583818 0.018043498 0.14800374 -0.018074263 0.017278679
0.098529786 0.10521067 -0.42313558 0.09100104 0.16839983 0.11915515 0.1390143 0.21838672
0.027795775 -0.19892175 -0.09968782 0.13050267 -0.12366647 -0.04819647 0.033534396 0.10200515

fc1.bias f4 [120]
00000000: 62f3 14be 40c8 9dbe 5bc9 873e 0b7e b8be
00000010: ee86 1e3c 2992 883b 901b a6be cac2 acbe
00000020: 50c8 41bc 3006 953c 1dd5 5bbd a318 9dbd
00000030: 723d 74bd 8be1 b7be 3f8c a23b 071d a53e
00000040: e91a 11bf 1fe9 0e3d 74f5 a73d 50b1 d7be
00000050: d8d6 f73d 70a8 c7bc 50a5 aebd 3526 253e
00000060: aa49 e43d 94de 1ebf 21f1 553c 0de2 afbe
00000070: 35fc 563e 2a76 813c 79fc c2bd cc4d a7bd
00000080: 7479 8b3c 39ab 6dbd 2a6e b33d 15cc 823e
00000090: e3e0 aa3e c3ef fc3e 1e68 a9be 41fe 8cbe
000000a0: 36db a0be c933 8bbd 3898 5abe 83b6 49be
000000b0: e2f3 07bd e3e3 aebe 146b 9abe f422 afbd
000000c0: 35ea 85bd d0f0 17be 0037 91bd 5384 813e
000000d0: aa74 bfbd e390 69bd d5e8 703e eb4c 83bc
000000e0: 3549 69bd 9d17 d13d 325b c5bc 415f 92bd
000000f0: b47a acbd 5843 23be 3ad0 85be 9ef9 adbd
00000100: 4daf c1bd 326e 34be ca73 743e 8970 41be
00000110: 1181 373e 901e d9bd a8d5 e33e f835 eabc
00000120: 8fbf b6bd c0e7 253f 5e94 aebe a34a b0be
00000130: cc85 12bd a3e0 d33e 4ac2 2fbe 4158 eabc
00000140: d366 88bd d06d e83d 68e5 2abe e86c cc3e
00000150: 8b85 0abf a8e6 78be be47 04bd 8805 9bbe
00000160: 5f40 dfbe 85a1 49bf 4638 93bd b9eb 9cbc
00000170: 47da 8cbe b8a4 0cbd f0ac f23e 861e 2abd
00000180: 664f 2a3d ee33 aa3e b1a2 e63d aac5 5ebe
00000190: 5f56 fcbe bc53 843d 4a76 1d3d 7f9b d53e
000001a0: 3eb5 bfbe 0cf6 f53c 8479 babe 88c1 6abe
000001b0: 429e 9dbe c1f4 8ebd 55d4 efbc 13e7 3fbe
000001c0: f0c6 b43c dc8b 4fbe bcbb a73c b38a 663a
000001d0: d0d2 aabe 8915 e7be 9c06 c5bd 4496 bbbc
-0.14545968 -0.3081684 0.2652081 -0.36033663 0.009675724 0.0041678143 -0.32442904 -0.33742362
-0.011827543 0.018191427 -0.053670038 -0.07670715 -0.05962891 -0.35914263 0.0049605663 0.3224871
-0.56681687 0.03489029 0.08201113 -0.42127466 0.12101525 -0.02437231 -0.085276246 0.16127856
0.11146863 -0.6205838 0.013057978 -0.3435215 0.20994647 0.015803415 -0.095208116 -0.081691355
0.017025687 -0.05802462 0.087612465 0.25546327 0.333747 0.49401674 -0.33087248 -0.2753773
-0.31417245 -0.067969866 -0.2134713 -0.19698529 -0.03319157 -0.3415824 -0.3015982 -0.08551589
-0.06538812 -0.14837956 -0.070905685 0.25296268 -0.09348424 -0.05702294 0.23526318 -0.016027888
-0.05695458 0.10209582 -0.024091337 -0.071470745 -0.08421841 -0.15943658 -0.26135427 -0.08494876
-0.09457264 -0.17620161 0.23872295 -0.18890585 0.17920329 -0.106015325 0.44498944 -0.028590187
-0.08923256 0.6480675 -0.3409757 -0.34431943 -0.03577213 0.41382322 -0.17163959 -0.028606536
-0.06660237 0.1134907 -0.16689074 0.3992684 -0.5411002 -0.24306738 -0.03229498 -0.30277658
-0.436038 -0.78762084 -0.07188468 -0.01915537 -0.27510282 -0.034336776 0.47397566 -0.041533016
0.041579627 0.33242744 0.112615 -0.2175509 -0.49284646 0.064612836 0.038442887 0.41720197
-0.37442964 0.03002455 -0.36420834 -0.22925389 -0.30784804 -0.06980277 -0.029276052 -0.18740492
0.022067517 -0.20268196 0.02047526 0.00087944715 -0.33363962 -0.45133618 -0.09620401 -0.0228988

fc2.weight f4 [84, 120]
00000000: 6f83 c03e 101a bcbd bd98 0cbd 6858 833e
00000010: 0d8c 733c bfee 9fbd 9b32 cb3d 2377 0f3e
00000020: 08d7 eabc f636 7dbd fe64 97bd 848a 713d
00000030: 599d d83d 8fe7 cdbe dd34 b9bd 6a10 c23d
00000040: dcf6 443e ee2d 483e 6f18 913e 09ec 4c3e
00000050: e339 a1be 6d6f 693c 8b7a ca3d 2cda 54be
00000060: 41ca 9b3d 362d c63e 7835 8e3d 5f9a 81bd
00000070: b1d0 c63e 446c bb3c 3a98 013e 0b7e 85bd
00000080: 1dc7 9ebd d600 0ebd b475 103e a45b 9bbd
00000090: 0904 e53c a828 ccbe 75ed 3e39 2856 7abe
000000a0: 6595 9d3e 2a62 5cbc 6d8e bb3e cadc 7b3d
000000b0: 4306 58be b6ba 54be f876 e8bd ed3a 8e3c
000000c0: 4365 f4bd 4ee2 083e 7413 a23e b772 85bd
000000d0: f7e4 f03c c974 58bc c09c 83be 5276 9cbe
000000e0: e5f6 453d 2d30 9b3e 6f5b 58bd a411 5f3d
000000f0: 26c6 e13c 5704 c63e 99c6 133e 182a 503d
00000100: 882c 093d c29c a9bd 685c c03e 4ca2 50be
00000110: f097 47be 8eb7 cbbe b474 c1be 5333 15bd
00000120: da4a d5bd d0f0 c7be a8a4 193d a64f ce3e
00000130: 0e92 fb3c 0a7b f83d ecb8 91be 1b73 923d
00000140: 76ce 1a3d 8c3a aebd 53ef 913d 1e30 38bd
00000150: d084 4fbe e838 5ebd fd42 363e 1edc a23e
00000160: 265d c33b 5620 8f3d 43d1 4c3d 21e0 093c
00000170: 9a97 073e 1866 bdbc c17d b9bd 520a d73d
00000180: 4d98 603e dc83 053e 55fd c33e 588e 80bc
00000190: e3d1 14be 3cb2 6d3e 738c 863d f609 55be
000001a0: 8b07 9b3e 1e4b d23c 1666 a43e 29e6 c9bd
000001b0: d5a6 153d c956 b63c 7ca1 003e 5d7a b13e
000001c0: 3572 593d f77c 8bbe 39a6 aabb cc92 1dbc
000001d0: 11e5 453c a8d8 ab3e 4439 0c3d 17d1 d13d
000001e0: 1093 4f3e 0c02 f6bc 97f2 893e a37b a4bd
000001f0: 65c6 12be d975 5bbc e071 053e 47eb 363d
00000200: 2971 99bd 1e70 863d 453b a3bd b515 923d
00000210: 6fc1 79bd 8024 aabe 3796 a23c 9183 b3be
00000220: f297 6b3e 7758 eebc fdf2 96bd 3af7 23be
00000230: 6439 b83e 51e0 31bc 864e a3be fc4b f5bd
00000240: 37e8 bb3d ab5d b1bd 6866 c83c e0ea cb3c
00000250: da38 c83e 9309 c13c 3293 843c d365 b63d
00000260: f64c 1cbc f401 b8bd b382 d53c ed5e 8d3e
00000270: f98c 98be d1e5 e7bd aec7 753c a949 99be
00000280: 0133 bd3e 892a ce3c 3457 c23e c2ca 4d3e
00000290: 91cc 9ebe e200 073e 7300 82be 7592 d1bd
000002a0: ada8 07bd 90de a3bc 31bd cb3e ab9c a13d
000002b0: 1519 51be 04c5 f5bc 0d56 9dbd ddf6 623e
000002c0: e78a 233d 1f5f 493e 7a30 d7bd 8d68 9f3d
000002d0: c22b 11bd 2dcf b23e ba65 a0bd f3e2 35bd
000002e0: 84b7 84be 02ef 5c3e 54a6 8a3e cbb9 393d
000002f0: 2c9c de3d f861 dabd ddf3 a0be 209d 003d
00000300: ab59 a83e 990c 013d 3c7d b23e 69a8 07be
00000310: e12c 703c ba42 703d 59c0 a53c 9828 503d
00000320: 1234 403b 358d 3e3d cc59 c03e 5600 ed3c
00000330: dd9e 45be 6ce4 c0bd f058 c4be a243 383e
00000340: 2204 23bc ba75 4abe 03e3 2cbd da4d a4bd
00000350: fd3f 4bbe 62e5 08bd 6e9f 513e 18e3 c2bd
00000360: 3242 c6bd 1d1c 693e aa80 afbd 5d5b 493e
00000370: 9e20 553d 5d29 bf3e 66cd 6b3d 1819 023e
00000380: 2de0 83bd aa43 2a3c a33c 32bd 8343 023e
00000390: b213 9cbc 4a22 a2bd 2458 92bd 462e c53e
000003a0: 7fc9 a7bd 4c1e 19be c3ef 823d e76c 343d
000003b0: 1796 c13e 880d 4a3d 8b65 be3b b922 ab3b
000003c0: dbe0 753d 19c3 023c be42 5fbe 76d6 fabd
000003d0: 3a3b 2e3e fb32 173d 98ae c1be 5423 77bd
000003e0: aa14 a13d 386a 273c c111 10bd 54e3 83bd
000003f0: f1a0 123e 4d08 95bd 0bec d3bd 2fab cc3e
0.37600276 -0.091846585 -0.03432535 0.25653386 0.014864934 -0.07809209 0.099217616 0.14010291
-0.028666988 -0.061819993 -0.073923096 0.05896999 0.10576887 -0.40215728 -0.09043286 0.09475787
0.19234794 0.19548771 0.28338954 0.20011915 -0.31489477 0.014247757 0.098866545 -0.20786351
0.07606936 0.38706368 0.06943792 -0.06328272 0.38831094 0.022878774 0.12655726 -0.065181814
-0.077528216 -0.034668766 0.141074 -0.075858384 0.027956026 -0.39874768 0.00018208272 -0.24446929
0.3077804 -0.0134511385 0.366321 0.061489858 -0.21096139 -0.2077435 -0.113508165 0.017362082
-0.11933377 0.13367578 0.31655467 -0.06516021 0.029406054 -0.0132114375 -0.25705528 -0.3055902
0.04833116 0.30310193 -0.052821573 0.054460183 0.027560305 0.38675186 0.14431228 0.050821394
0.033489734 -0.08281852 0.375705 -0.20374411 -0.19491553 -0.3978848 -0.3778435 -0.0364259
-0.104146674 -0.39050913 0.037510544 0.40295142 0.030709293 0.12132843 -0.28461397 0.07150861
0.037794553 -0.08507261 0.071257256 -0.044967763 -0.20265508 -0.05425349 0.17798992 0.3180856
0.005962032 0.069885895 0.050004255 0.008415253 0.13241425 -0.023119971 -0.09057189 0.10500015
0.21933098 0.13038582 0.38279215 -0.015692875 -0.1453319 0.23212522 0.06569757 -0.20804581
0.30279192 0.025670584 0.32109135 -0.09858353 0.036536057 0.02225818 0.12561601 0.34663668
0.053087432 -0.27243778 -0.0052078036 -0.009617519 0.0120785395 0.33563733 0.0342343 0.10244959
0.20270944 -0.030030273 0.26942894 -0.08031394 -0.14333494 -0.013394796 0.13031721 0.04465797
-0.07492287 0.065643534 -0.07970289 0.071330465 -0.06097549 -0.33230972 0.019847019 -0.35061315
0.23007181 -0.029094918 -0.07370565 -0.16012278 0.35981286 -0.010856704 -0.31895846 -0.119773835
0.09175151 -0.08660444 0.024462894 0.02489227 0.39105874 0.023564136 0.01618347 0.0890614
-0.009539833 -0.089847475 0.026063299 0.27611485 -0.29795054 -0.11323131 0.015001221 -0.2993901
0.36952975 0.025166767 0.37957156 0.20096877 -0.31015447 0.1318393 -0.25390968 -0.102330126
-0.033119846 -0.020003587 0.3979278 0.0789121 -0.20419724 -0.030001171 -0.076824285 0.22164483
0.03992739 0.19665192 -0.10507293 0.07783613 -0.03544212 0.34923688 -0.07831903 -0.04440589
-0.2592126 0.21575549 0.27080023 0.0453432 0.10869631 -0.10663217 -0.31436053 0.031399846
0.3288091 0.031506155 0.3486117 -0.13247837 0.014659137 0.058657385 0.02023332 0.050819963
0.0029327911 0.046521384 0.3756851 0.028930824 -0.19298883 -0.09418568 -0.38349104 0.1799455
-0.009949716 -0.19771472 -0.042208683 -0.080226615 -0.19848628 -0.03342188 0.20470974 -0.09515971
-0.096805945 0.2276463 -0.085694626 0.19663759 0.05203306 0.37336245 0.05756893 0.12704885
-0.064392425 0.010392109 -0.04351486 0.12721066 -0.01905236 -0.07916696 -0.07145718 0.38511866
-0.08192729 -0.14952964 0.06393387 0.04404917 0.37809822 0.04932931 0.0058104447 0.005222645
0.060028892 0.007981085 -0.21802804 -0.122479364 0.1701478 0.036913853 -0.37828517 -0.060336426
0.078652695 0.010218196 -0.03517318 -0.06439844 0.14319207 -0.07276974 -0.10347756 0.39974353

fc2.bias f4 [84]
00000000: 17a3 44be 8a96 f53d c7df f9bc 0ddb cb3b
00000010: 1d65 0d3e 5477 09be 11dd 223d 6c15 32bd
00000020: d90b a1bd d5d7 9f3d bf9e ccbd 2bd6 abbd
00000030: 8bcd a8bd 1a22 eb3d d483 3fbe fbe5 bbbd
00000040: 9a9c 55bd 048f 88be 452b a23d fb24 f0bd
00000050: e663 1abd d754 0c3e 772d 00be dc04 753d
00000060: d24a 0bbe 7073 613e 9778 b4bd 45d8 c1bd
00000070: 93f9 f1bd 3c7b edbd c14d e2bd ce25 1b3d
00000080: 8b33 2e3d 2814 5f3d 0359 5dbc f51a 6c3d
00000090: 1665 1d3e 5fa8 48be 2942 7f3c bcda fcbc
000000a0: 1a5f b3bc f499 203c 8f46 c0bd ab8a 2ebe
000000b0: 9a64 ca3c 5ab3 713e 59ef 70be a716 36bd
000000c0: 4e02 f5bd 4776 83be 7ed3 2b3e 12c6 a03c
000000d0: 4302 fcbd dbf5 79bd 92a6 413d 8586 4f3d
000000e0: 0a13 43ba 8aa1 cbbd a879 c5bd a8da 89bd
000000f0: 2d47 8bbe abf5 a3bc a932 4a3e 6c2d 6b3e
00000100: e93c b6bd bbf5 10bb 69bb 2cbe 056d 1abe
00000110: c939 973e 0b62 a33d d3a7 86bd ab34 e2bb
00000120: c530 16bd 862a 00bd a129 3bbe 9d98 4eba
00000130: 26ee c73d 5352 71bd 2809 aabd 3889 fe3c
00000140: 1fa9 d03b f00b ccbd 774f 023d acba 2e3e
-0.19202839 0.11991604 -0.030502213 0.0062211812 0.13808103 -0.13424426 0.039761607 -0.04347746
-0.07863588 0.078048386 -0.09991216 -0.08390459 -0.08242329 0.11481114 -0.18702632 -0.09174725
-0.0521513 -0.26671612 0.07918409 -0.117258035 -0.037692927 0.13704239 -0.12517343 0.059819087
-0.1360276 0.22016692 -0.08812063 -0.09465078 -0.11815181 -0.11595771 -0.11049987 0.03787785
0.042529624 0.054462582 -0.013509992 0.057642896 0.15370592 -0.19595478 0.015579739 -0.03086602
-0.021895934 0.00980233 -0.09388458 -0.17045085 0.024706174 0.23603573 -0.23528804 -0.044455197
-0.1196333 -0.25676176 0.16779897 0.019625697 -0.12305119 -0.06102548 0.047277994 0.050665397
-0.0007441497 -0.099429205 -0.09642345 -0.067311585 -0.2720274 -0.020014605 0.19745888 0.22966546
-0.088983364 -0.0022119123 -0.16868366 -0.1508065 0.29536274 0.079776846 -0.06574979 -0.006903251
-0.036667604 -0.031290554 -0.18277599 -0.00078810175 0.0976222 -0.0589164 -0.08302528 0.03107129
0.006367817 -0.099632144 0.031814065 0.17063397

fc3.weight f4 [10, 84]
00000000: 23ba 69be 32f6 fabc 5a15 4abe d986 a0be
00000010: f6c4 8cbe f215 5e3e d0b7 52be 7c83 043d
00000020: 9ae6 80bd 02f9 2e3e 6b12 d3bc d794 85be
00000030: cc99 43be d33c b13e b934 a3be 52f2 61be
00000040: 8722 cd3c bad7 4f3d d0cd 94be ce11 b33e
00000050: 808f 0abd 4fbf 1a3e b4ca 9fbd 9033 bf3c
00000060: 53ff 753e 4a1a 2fbd 948f 4fbe 2870 90bd
00000070: 8bcc 883e 9eaa a3bd 7b08 1d3e 5691 95bd
00000080: 1663 53bc 899a b5be 70e2 74be b084 733e
00000090: 2dd3 abbe 10a7 643e a724 28be f9db 0abe
000000a0: 083d 003e d04e 44bd d536 ab3e 8076 41be
000000b0: d59b 82be 15aa 923d fd8b b7be 6d69 383e
000000c0: fb75 b3be cfd8 4d3e cb34 7d3e 0136 68be
000000d0: 42d6 0bbc c359 8ebe 5eb0 b7be 4903 fc3d
000000e0: 09e2 b4be fa8d f4bd fb46 0fbe 3570 243e
000000f0: f53b 873e a97e 51bd a06c 6c3e 18fe b63e
00000100: 1f2c 1cbd aaa9 713e 6498 5f3e b174 693d
00000110: 1226 56bd e66b b9be ae61 6c3e d0a4 9d3e
00000120: e4c6 983d 4422 aabd 824a b0bc d42d 92be
00000130: 532c 043e 6c7a 9dbd b851 0d3a e719 07be
00000140: cfa1 b03e 4963 0abe af68 143e b913 b4be
00000150: 2f7a a23e fb75 34be ca79 a7be 37ad 4abe
00000160: 00ef b2be 7809 113e c494 b7bc 6eb0 a83d
00000170: de70 943d 7ab3 c53d 6638 9e3b c0d4 b43e
00000180: 25b9 0b3e 8cab 87bd 5408 93be 213a 3cbe
00000190: 3345 c4bd c833 3d3e ddf6 1f3e e4b9 9bbe
000001a0: b548 b63e 3de1 b8be 9951 be3d a020 ac3e
000001b0: 8916 023d 6a07 b2be 0072 c63d 0cdf 4cbe
000001c0: 045b 0f3e 14bc 33bb c5e7 ae3e b5f4 d03d
000001d0: 1141 6a3c 1bc3 4dbe cf5e b03e f64a adbe
000001e0: 40b4 28be 587b 9b3e 4cf8 67be db06 073e
000001f0: aab6 49bc 60bb 8cbd 10c8 fdbd 7ee4 2b3e
00000200: 7364 afbe 51d8 afbe 9cc0 ab3e 5f19 b4be
00000210: 2bfc 51bd b254 833e 0423 b4be dc75 97be
00000220: 49fc 953d 44f1 aabe b6c1 a4bd 5171 203e
00000230: db22 51be 8a39 cc3c f138 13bd e493 953e
00000240: 883b 683e 3edd af3d b467 94be 2ef0 abbe
00000250: 0d14 8c3d 2ab5 903e befc b4be 5df5 8a3e
00000260: cfaf 83bd 3d27 b43e d66a a53e f208 88bd
00000270: 5a99 b1be e482 aebe 0e5e 923e b680 b2be
00000280: c9f7 a8be ea0a b23e 6292 4fbe 1aa4 c53c
00000290: b50d 683e 9669 b3be 5342 a9be 65f5 8cbe
000002a0: 53f8 6b3e bbf1 373e 7616 9a3e 22a3 6d3e
000002b0: 325b b0be d6fe 773e 4875 163e cbf1 0b3e
000002c0: dd56 0cbe 47e0 72be d781 4c3d 7137 adbe
000002d0: a3e5 b23e 2156 96be 29dc 483d 96ea abbe
000002e0: 8040 00bd 6ec3 47be ef27 adbe 4a79 cf3c
000002f0: 4ee1 2c3e 3705 a5bd 76a1 02be c55d 47be
00000300: 2ddc b3be 44c5 aebd 6982 69bd 5326 0b3e
00000310: a993 173e 3ec3 bebb 6678 753e c8f3 6a3d
00000320: 41ce 53bd 9696 6ebe 6f35 6cbe 207d b13e
00000330: 5138 8ebe b4c6 b2be b0e1 8fbe a9a4 71be
00000340: b29b 6e3e 4858 cebd 7e07 a33d 95a6 55bd
00000350: b94a 36be dba0 173e 9bb1 ca3c a2a0 6a3d
00000360: 4d05 96bc 5cc3 0fbe f508 6b3e e454 143e
00000370: b075 93bd b5a1 6cbe 6b8b 17bd 1cea b7be
00000380: 2014 b3bd 7536 163c f15f 9d3c ece1 7cbd
00000390: 30b9 b1be 255a acbe 6d20 18bd 70bd 1f3c
000003a0: 31d5 833d 2275 43be dbe4 aabc ca59 063e
000003b0: 31cf 9abe 7ac3 b3be e555 b4be ef1e 953d
000003c0: 46f7 843e d438 2a3e aaf2 173e 5952 093e
000003d0: 7270 b2be 29da 563d 530e 93be f044 143e
000003e0: f444 3c3e 6979 993e e160 4d3e d636 7b3e
000003f0: 658e afbd e608 2e3e 2867 41be df7b d93d
-0.22824912 -0.030634973 -0.19734707 -0.3135288 -0.2749402 0.21688059 -0.20577931 0.032351956
-0.06293984 0.17087176 -0.025765618 -0.26090118 -0.19101638 0.34616718 -0.31876162 -0.22065094
0.025040878 0.050742842 -0.29063272 0.3497452 -0.03382826 0.15112041 -0.078023344 0.023340017
0.2402318 -0.04274968 -0.20269614 -0.07052642 0.26718554 -0.07991527 0.15335266 -0.07303111
-0.012902042 -0.35469463 -0.23914504 0.23781085 -0.33559552 0.22329354 -0.16420232 -0.13560475
0.12523282 -0.047926724 0.3344027 -0.1889286 -0.25509515 0.07161347 -0.3584899 0.18008967
-0.3505095 0.20102237 0.2472717 -0.22676851 -0.00853497 -0.27802858 -0.35876745 0.12305314
-0.353287 -0.119411424 -0.1399192 0.16058429 0.2641293 -0.051146183 0.23088312 0.35740733
-0.038128015 0.23599878 0.21835476 0.05699605 -0.0522824 -0.36215132 0.23084137 0.30789804
0.074598104 -0.08307317 -0.021519903 -0.2855059 0.12907533 -0.07689366 0.00053909 -0.13193475
0.3449845 -0.13514437 0.14493059 -0.35171297 0.31733844 -0.17623131 -0.32710105 -0.19792639
-0.34947968 0.14163768 -0.022409804 0.08236776 0.0724809 0.09653373 0.0048285006 0.35318565
0.13644846 -0.06624517 -0.2871729 -0.1838155 -0.09583511 0.18476784 0.15621515 -0.3041526
0.35602346 -0.36109343 0.09292907 0.3361864 0.031759772 -0.3477128 0.096897125 -0.2000696
0.13999563 -0.0027425336 0.341612 0.10202924 0.01429774 -0.20093958 0.34447333 -0.33846253
-0.1647501 0.3036754 -0.22653311 0.13186209 -0.012311617 -0.068716764 -0.123916745 0.16786382
-0.34256324 -0.34344724 0.33545387 -0.35175607 -0.051265877 0.25650555 -0.35182965 -0.29582107
0.0732351 -0.33387196 -0.0804476 0.15668227 -0.20423453 0.02492978 -0.035942975 0.29214394
0.2267896 0.085871205 -0.2898537 -0.3358168 0.06839762 0.28263217 -0.35349077 0.27140322
-0.06430017 0.35186186 0.32308072 -0.06642331 -0.3468731 -0.34084237 0.28587383 -0.34863824
-0.33001545 0.34773952 -0.20270684 0.024126101 0.22661479 -0.35041493 -0.33058414 -0.2753097
0.23043947 0.17963307 0.3009526 0.23206761 -0.34444577 0.24218306 0.14693177 0.13666455
-0.1370501 -0.23718368 0.049928512 -0.3383136 0.34940824 -0.29362586 0.049038086 -0.33577412
-0.031311512 -0.19508144 -0.3381953 0.02532639 0.16882822 -0.08057635 -0.12756905 -0.19469364
-0.35128918 -0.08533719 -0.057009134 0.13588838 0.14802422 -0.0058216145 0.2397171 0.057361394
-0.05171037 -0.23299631 -0.23067258 0.34665775 -0.2777734 -0.34917223 -0.28101873 -0.23597969
0.2330158 -0.10075432 0.079604134 -0.052160818 -0.17801942 0.14807455 0.024742892 0.057282098
-0.018313074 -0.14039367 0.22952636 0.14485508 -0.072001815 -0.23108561 -0.036998194 -0.359208
-0.08744073 0.009168257 0.019210787 -0.061738893 -0.347116 -0.33662525 -0.0371403 0.009749755
0.064371474 -0.19087651 -0.02086108 0.1312019 -0.302362 -0.35110074 -0.35221782 0.07281291
0.25969905 0.1662324 0.14838663 0.1341032 -0.34851414 0.052454147 -0.28721866 0.14479423
0.18385679 0.2997544 0.20056488 0.24532637 -0.085720815 0.16995582 -0.18887007 0.1061933
