weight/resnet.pt (torch, 274093 bytes, 9 tensors)

conv1.weight f4 [6, 3, 5, 5]
000000 f7 9d 33 3c 70 42 1d 3d 1b ac a2 bc cd 35 11 3e
       0.010962955 0.038393438 -0.019857457 0.1418068
000010 41 41 cf 3d 21 09 0a 3e 74 01 55 3e ff 15 6a 3e
       0.10119868 0.13480045 0.20801336 0.22859953
000020 dc 1a 55 3e 30 89 29 3e 48 bf 9e 3d 20 62 8c 3d
       0.20811027 0.16556239 0.07751328 0.06854653
000030 3f 63 36 3e a2 1a 0d 3e f7 ec 74 bd c6 aa 6e be
       0.17811297 0.13779691 -0.0597963 -0.23307332
000040 2a 0b 70 be 33 c9 71 be 9a be 6f be b1 b8 06 be
       -0.23441759 -0.23611908 -0.23412552 -0.13156392
000050 69 38 62 bd da 0c 02 be 71 1e 8d bd 0d 6b 72 bc
       -0.05522958 -0.12700215 -0.06890572 -0.014796031
000060 00 78 ca bd c3 5a 31 be a6 09 0f 3c 7c 47 2a be
       -0.098861694 -0.17319779 0.008730328 -0.16628832
000070 6e ee a4 bd eb 4e 57 bd b2 29 01 3e 75 50 c7 3d
       -0.08053289 -0.052565496 0.12613562 0.09732143
000080 78 e0 93 3d 1a fb 87 3c 00 97 2d bd fb e2 83 3d
       0.072205484 0.016599227 -0.042380333 0.064397775
000090 cd 9f 82 3d 07 93 9d bc b3 ae 0d bc 3c 0f 18 be
       0.06378136 -0.019235147 -0.008647609 -0.14849561
0000a0 31 8e 32 be 8c ac e6 bd f2 47 66 be 99 fa 50 bd
       -0.17437054 -0.112633795 -0.22488382 -0.05102024
0000b0 ba 80 6d bd d4 b8 eb 3d 4d 8d f5 3d 3c 16 b4 3d
       -0.05798409 0.115098625 0.119898416 0.08793303
0000c0 2f f1 fa 3c cc d6 c8 bc 50 6c 04 bd d0 d6 5a bd
       0.030632583 -0.024516486 -0.032329857 -0.053427517
0000d0 73 f3 2a be bc 83 08 bd dd ec 01 be 51 e9 a8 3d
       -0.16694431 -0.033328757 -0.12688012 0.082476266
0000e0 43 94 f0 bc 17 f8 53 3d 33 71 1f 3e fc 51 11 3d
       -0.029367572 0.05175027 0.15570526 0.035478577
0000f0 49 8f 38 3d 65 db 01 3e 91 38 be 3d 83 72 57 3c
       0.045058522 0.12681349 0.09288133 0.01314986
000100 c1 f6 44 3d 4f 57 a1 3c cf d8 ac ba 85 80 46 be
       0.048086885 0.019694952 -0.0013187173 -0.19384964
000110 c3 c9 60 bd 91 5d 93 3d a0 51 5e 3c f8 cb 03 bc
       -0.054879915 0.07195581 0.013569266 -0.008044235
000120 58 f4 7c 3d ba ab 05 3e 3d 04 23 3d 44 65 38 3d
       0.06175646 0.1305379 0.039798964 0.04501845
000130 c3 c5 48 3c 68 5b 10 3d 5e 5f 9a 3d 3d 5d bb 3d
       0.012254181 0.03524342 0.07537721 0.09148643
000140 18 5c 59 3d eb b1 2c bd 55 07 e4 bd 90 64 9d bc
       0.053066343 -0.042161863 -0.11134211 -0.019212991
000150 80 24 cd 3d e3 3e 94 3d a8 ac 5d be ab 9e 4a bd
       0.100167274 0.07238557 -0.21647894 -0.049467724
000160 91 b2 1c 3e 53 8a 1c 3e 0d e1 b7 bc 58 71 6e be
       0.15302493 0.15287142 -0.02244618 -0.23285425
000170 67 d6 5d bc 93 18 bb 3d 66 9a fc 3d 13 f1 35 3c
       -0.013539887 0.091355465 0.12334137 0.01110484
000180 74 6e 18 be d7 a7 26 bd f4 78 bf 3d e0 2a 96 3d
       -0.14885885 -0.04068741 0.09349242 0.073323965
000190 c5 53 d5 3c 4b f3 97 bd 7e 5a 04 be 67 23 b5 3c
       0.026040921 -0.07419451 -0.12925145 0.022111608
0001a0 c0 32 a2 bd 02 66 23 bc 92 29 62 be 68 36 ff bd
       -0.07919836 -0.009973051 -0.2208617 -0.12461549
0001b0 b6 31 3e 3e 7e 44 2a bc 4b 12 01 3e ae 80 72 be
       0.1857365 -0.010392306 0.12604634 -0.236819
0001c0 d1 16 73 be 67 22 73 3e d0 30 b2 3d c4 c1 fc 3d
       -0.23739173 0.23743592 0.087007165 0.12341645
0001d0 62 c0 1e be 1c 24 b4 bd 08 16 13 3e f8 59 68 3d
       -0.15503076 -0.0879595 0.14363873 0.056726426
0001e0 06 31 71 bd 6d 2b da 3c 9c de 80 bc 2f 13 c1 3d
       -0.058884643 0.026632035 -0.015731148 0.09427487
0001f0 a1 bb 8a bd 7d a6 68 bc 99 85 b4 bd 4d 41 a2 3c
       -0.067740686 -0.01419985 -0.08814544 0.019806528
000200 50 c2 69 bd 5a c2 f7 3c b9 a3 73 3d 86 9c 37 be
       -0.057070076 0.030244041 0.05948231 -0.17930803
000210 cf 89 b3 3c ae 48 58 3d 59 59 1d 3e f7 61 0b 3d
       0.021916298 0.052803688 0.15366115 0.034028973
000220 ea fe 72 be fc 67 f3 bd 97 ca 01 3e c6 c4 89 3d
       -0.23730054 -0.11885068 0.12674938 0.06726985
000230 4f c7 5f 3d dc 25 5e be 41 52 76 bd 7b 84 0b 3e
       0.054633435 -0.2169413 -0.060137037 0.13624756
000240 14 1d d7 3d 01 97 92 3d 22 b3 2e be 8c e2 e2 bc
       0.10503593 0.07157708 -0.17060521 -0.027695917
000250 ea 19 19 3e d4 b4 0b 3e 4c d7 40 bd 18 bd 5c 3d
       0.14951292 0.13643199 -0.047080323 0.05389127
000260 5a 6f f7 3c fd b2 21 bd e7 95 7e bd 4a e6 ca 3d
       0.030204464 -0.039477337 -0.062154677 0.099072054
000270 8b dd ae bc c2 ab 7b bd a5 bd 3f be 18 1e fb 3d
       -0.021345874 -0.061443098 -0.18724687 0.12261599
000280 1e 72 e3 3c 46 df 4f 3e 26 d5 22 bd 8f dc 76 be
       0.027764376 0.20300016 -0.039754055 -0.24107574
000290 79 cc 9e 3d 2c 69 40 bd b4 e9 74 3e fe 87 a2 bd
       0.07753844 -0.0469753 0.23917276 -0.07936095
0002a0 cd aa 72 be 6e 41 ae 3c cc a3 be bd b6 49 72 3e
       -0.23697968 0.021271434 -0.093085855 0.23660931
0002b0 1e ca 57 bd a4 c2 71 be 92 3e 7f 3c 83 0f 5e bd
       -0.05268299 -0.23609406 0.015578883 -0.054214012
0002c0 60 00 86 ba 7e fe 03 3d 33 c8 73 bd 59 de 7b 3d
       -0.00102235 0.032225125 -0.059517097 0.061491344
0002d0 82 e9 df 3d 7f 10 00 3d 56 a2 7b 3d 41 a7 ae 3c
       0.1093321 0.031265732 0.061434112 0.021319987
0002e0 f2 c4 a6 3c 07 b2 0a bd b4 7b 26 3e 65 54 3b be
       0.020357583 -0.033861186 0.16258126 -0.18293913
0002f0 d6 ba 64 be 5d bc 6d 3e ef 7e e7 bd d3 be 76 3e
       -0.22336897 0.23216386 -0.113035075 0.24096231
000300 0f 8c 98 3d 52 03 74 be fd fb 75 3e 2e d4 6b bd
       0.07448589 -0.23829392 0.24021907 -0.057575397
000310 fb b9 73 3e a4 f7 09 bd 2c 44 3e be f2 41 d6 3c
       0.23801415 -0.033683434 -0.18580693 0.026154492
000320 77 65 37 bd 12 c2 2a 3d c3 f3 1d 3d 5c 2c 18 be
       -0.0447745 0.041688986 0.038562547 -0.14860672
000330 7f 96 4b 3d 37 fe 0c bd 29 27 ac bd 15 f0 fe 3c
       0.04970407 -0.034422126 -0.08405907 0.03112034
000340 10 f2 73 bd 8d 44 de bc 6d 75 69 3d 75 75 81 3d
       -0.05955702 -0.027132297 0.05699675 0.06321231
000350 68 31 1b be 72 d9 84 bc 33 80 36 3e ad d1 42 bd
       -0.15155566 -0.016216967 0.17822342 -0.047563244
000360 1d cb 75 3e 7d 0b 3f bd 72 90 4b be f7 16 0f 3d
       0.24003263 -0.046641815 -0.1987932 0.03493401
000370 f6 5b 67 be c2 50 77 3e 22 f8 01 3e 9b 63 0f be
       -0.22593674 0.241519 0.12692311 -0.1400284
000380 30 72 9c bd 68 83 6b bd 00 73 67 bc 0b ce 9c 3d
       -0.07638967 -0.057498366 -0.014126539 0.07656487
000390 3c 4f f1 3d 97 85 ae 3d 0d 9b df 3d 3e 0e 60 3d
       0.11782691 0.08521574 0.109182455 0.054701082
0003a0 27 c8 65 3d d5 d9 44 3d 1a ac 66 3d f4 d9 0e 3e
       0.056099083 0.048059303 0.056316473 0.1395033
0003b0 a4 9c b1 bd 08 d1 0e be 44 d1 10 3d 77 d0 88 3b
       -0.08672455 -0.13946927 0.03535582 0.0041752416
0003c0 a1 91 1a 3e a7 9d 8b bd f6 71 13 be cf 7b fa bd
       0.15094616 -0.06817179 -0.14398941 -0.12230646
0003d0 20 d7 1d bd de c0 c4 bc b0 e4 9a 3d 8a 3d a6 bd
       -0.038535237 -0.024017747 0.0756315 -0.081172064
0003e0 57 c7 3d 3c c6 29 f4 bd a8 21 7a bc e5 73 f5 bd
       0.011583171 -0.1192203 -0.015266813 -0.11984996
0003f0 03 35 07 be 19 41 9f bd 5e 8b 31 be 6b a7 58 3d
       -0.13203816 -0.07776088 -0.1733832 0.052894037

conv1.bias f4 [6]
000000 a6 7b 2e be 62 44 ac bd 2f 5a 69 bc fb 17 f8 bd
       -0.17039356 -0.084114805 -0.014242693 -0.12113949
000010 6b 00 0d 3e bf 1b a2 bd
       0.1376969 -0.079154484

conv2.weight f4 [16, 6, 5, 5]
000000 41 f1 0b be 78 49 f8 bd 6d 6b ee bc be 43 af 3d
       -0.1366625 -0.12123388 -0.029103959 0.08557843
000010 26 53 0e 3e 76 1b b2 bd d6 99 00 3c e4 2e c9 3c
       0.13898906 -0.08696644 0.007849177 0.024558492
000020 b5 f2 80 3d 2d 33 67 3e 90 c7 82 3c 06 a1 1c 3e
       0.06296293 0.22578116 0.0159643 0.152958
000030 d0 54 e8 3d cc 24 01 bd 27 b2 c1 bc 8a 7b b0 3d
       0.11344302 -0.031529233 -0.02364452 0.08617313
000040 d9 b6 f5 3c c6 6b f8 bd de 32 24 be c2 bc 73 bd
       0.029994415 -0.12129931 -0.1603503 -0.059506185
000050 f5 b3 9d bd 75 d6 4c be 79 36 97 bd de 62 c5 bd
       -0.0770034 -0.20003684 -0.07383437 -0.09637998
000060 39 1c 00 3e eb db 02 be 64 9e 54 be 89 1e 57 be
       0.12510766 -0.12779205 -0.20763546 -0.21007742
000070 21 21 40 be 7b c3 f0 bd cb 45 34 be d3 5f 64 be
       -0.18762638 -0.11756035 -0.17604749 -0.22302179
000080 13 de 65 be 22 96 6f be 4e b1 3e be f4 c3 fd bd
       -0.22447996 -0.23397115 -0.18622324 -0.12390891
000090 b2 2a 6e be 6e 76 71 be 18 ef 67 be b6 8d 60 be
       -0.23258474 -0.23580334 -0.22649801 -0.21929058
0000a0 cd 57 a3 bd 18 09 77 be f6 92 6f be 89 1c 69 be
       -0.07975731 -0.24124563 -0.23395905 -0.22764792
0000b0 4f 8b 68 be fa 94 89 3d 96 f8 12 bd 42 f9 5e be
       -0.22709392 0.06717868 -0.0358816 -0.21774772
0000c0 4a f6 6a be c9 66 74 be 0e f0 eb 3d da f5 f7 3d
       -0.22945514 -0.23867334 0.11520396 0.12107439
0000d0 c3 e7 48 3d 10 6c 10 3d 22 f7 5c bd 1a e1 61 3c
       0.04904915 0.035259306 -0.05394662 0.013786579
0000e0 32 60 af 3d cd ec 91 3d 68 3a a6 3c 03 77 a0 bd
       0.0856327 0.07125244 0.020291522 -0.078352
0000f0 15 6f bc 3d e4 a8 ac 3d af 4e 1f 3e 70 69 46 3d
       0.09200875 0.08430651 0.15557359 0.048440397
000100 bf ac 7f bc f2 71 84 3c 24 5e bd 3c 5d 33 98 bb
       -0.015605151 0.016167615 0.023116179 -0.004644795
000110 ee 65 0b 3d 59 c9 17 3b 34 dc ae 3d e7 dc ac 3d
       0.034032755 0.0023160784 0.08538094 0.08440571
000120 2d ea c9 3d 5a 7e 55 3d 84 a0 64 3c 71 69 8d 3d
       0.098591186 0.05212245 0.0139542855 0.06904877
000130 b3 fe 03 3e d7 9d a8 3d 64 f2 65 3d 46 21 e4 bc
       0.12890129 0.082332306 0.056139365 -0.027847897
000140 de dd 97 3d ec 97 f1 3d 65 1d d7 3d 0a a8 a2 3d
       0.07415365 0.11796555 0.105036534 0.07942207
000150 b6 12 bb 3d 61 c9 f0 3c e1 5b d1 3c 65 67 9d 3d
       0.09134428 0.0293929 0.025556507 0.076857366
000160 9b f4 af 3d eb e5 24 3d 27 81 c0 bd 9d bb 51 3d
       0.08591577 0.04025833 -0.09399634 0.051204313
000170 35 e7 08 3d 23 54 35 3d 70 9d 0d bc 09 6d 1e be
       0.03342362 0.044269692 -0.008643493 -0.15471281
000180 00 56 21 3d 55 2d 47 3c 6d 85 5c bc dc 2c 39 3d
       0.039388657 0.012156804 -0.013459546 0.045208797
000190 7e 0f 61 3d df 8f aa 3c 28 37 4b 3c 9e 65 8d 3c
       0.054946415 0.020820556 0.012403287 0.017260369
0001a0 ed e5 9e bd 76 d9 06 3e db e7 57 3d fe 4c 8c bd
       -0.077586986 0.13168892 0.05271135 -0.068506226
0001b0 d6 6d 96 bd bd 27 d4 bd 9d a4 eb 3d 80 76 9c 3d
       -0.07345168 -0.10359142 0.11506007 0.076397896
0001c0 82 2a 67 bd 72 d6 0f be 36 49 de bd 3d 79 43 3e
       -0.056437023 -0.14046648 -0.10853808 0.19089217
0001d0 c7 d7 0d 3d b0 26 9b bc dc f6 05 bd 2a 51 53 bb
       0.03462961 -0.018939346 -0.032706127 -0.0032244422
0001e0 44 f9 26 3e 58 43 49 3d bd 12 ff 3d 44 14 83 3d
       0.16306025 0.04913649 0.12454746 0.0640035
0001f0 86 bd 7a 3d 59 7c 4c bd dc 1c a9 bd 95 72 ed bc
       0.0612159 -0.049923275 -0.082574576 -0.028985301
000200 02 b1 3f bd 01 76 f9 bc 2d 6b 73 bd b4 c1 27 bc
       -0.046799667 -0.030451776 -0.059428383 -0.0102390535
000210 fb bf c7 bd b1 d9 d0 3c 14 34 60 bd 55 bb f7 bd
       -0.09753414 0.025494428 -0.054737166 -0.120962776
000220 30 9b 13 3d dd 8f 0a 3d 7a b1 a7 bd 3c 03 80 bd
       0.03603667 0.033828605 -0.08188148 -0.06250617
000230 8e 58 fa bd c8 57 b6 bd 50 9d 31 3b e0 42 22 bd
       -0.12223922 -0.08903462 0.0027101822 -0.03961456
000240 13 36 85 3c 69 7a 9f bd 01 c3 86 3c 88 5d 4a bd
       0.016261136 -0.0778702 0.016450407 -0.049405605
000250 07 98 80 3c 5f 94 05 3e b7 de 34 3d 66 22 a2 bc
       0.015697492 0.1304488 0.04415771 -0.019791793
000260 aa b7 cc bb 66 06 28 3d 56 a8 14 3e 74 ca 77 be
       -0.0062474804 0.041021727 0.1451734 -0.24198323
000270 b0 0d 94 3d 1d 8d 73 3e b7 b4 b3 3d 15 b2 f1 bd
       0.07229173 0.23784299 0.08774703 -0.118015446
000280 43 54 ad bc 3a 02 e6 3d d7 ba 9a 3d 2d 49 01 bd
       -0.021158343 0.112308934 0.07555168 -0.031563926
000290 1c f9 28 3d d4 55 c2 bd c2 98 d8 bc f7 06 63 3b
       0.041253194 -0.09489027 -0.026440028 0.0034641603
0002a0 55 b9 47 3e 06 32 01 3e fc d3 02 be bb b6 af 3d
       0.19504292 0.12616739 -0.12776178 0.08579775
0002b0 c1 05 aa 3c 78 30 14 3c 37 ae 8d 3d f6 59 f8 3d
       0.020754697 0.009044759 0.069179945 0.12126534
0002c0 89 b9 da 3d d3 af cb bc 30 21 9b bb 09 26 bf 3d
       0.10679919 -0.024864113 -0.004734181 0.093334265
0002d0 3d ae 45 3e 2f 9d b2 bd 5c 8d aa bd 29 5e b8 bb
       0.19304748 -0.08721387 -0.083277434 -0.005626459
0002e0 7f 23 64 3a 0f 82 bf bd 48 65 3f be 1a 41 5d 3d
       0.0008702799 -0.093509786 -0.1869098 0.054017164
0002f0 b8 83 bb 3d 19 8b ea bb 98 31 4a bc 41 2c 5e bd
       0.09155983 -0.007157695 -0.012340926 -0.054241423
000300 cd 3f 1c 3d af 9e 02 bd 66 42 f6 3d 1e e2 0d be
       0.038146783 -0.031889614 0.12024383 -0.13855788
000310 48 2f 17 3d 79 be 64 3c 00 58 e2 3c 8a c9 e1 bc
       0.036910325 0.013961428 0.027629852 -0.027561922
000320 b2 9f 10 3d cf fe e6 bd 77 b5 c6 bd 9d 78 d7 bd
       0.035308547 -0.1127907 -0.097025804 -0.10521052
000330 67 66 40 bd 58 04 63 bc 96 07 4c 3d d2 e6 4f 3d
       -0.04697266 -0.013856016 0.049811922 0.050757237
000340 1f c7 1d be 2b 92 c0 bd fd c4 dd 3d 41 4e ba 3c
       -0.1540799 -0.09402879 0.10828588 0.022742392
000350 b5 8b 9f bc 70 87 38 3c d8 d1 c2 3d 09 fb 34 bd
       -0.019475797 0.01126276 0.09512681 -0.04418472
000360 5f d3 ae 3d d1 db 6f 3b 8d a4 95 bc 2c 34 3b ba
       0.085364096 0.0036599527 -0.01826694 -0.0007141258
000370 d2 22 8e bc 69 84 c1 bc 02 a8 fa bd 1d 03 94 bd
       -0.017350588 -0.023622708 -0.12239076 -0.07227156
000380 ec 5a aa bd 26 78 c3 bc de 55 9b bd 25 11 a7 bd
       -0.08318123 -0.023861002 -0.07584737 -0.08157567
000390 2b 4d f5 3d 75 16 ab 3c e6 8c 21 be 27 8d 2f bd
       0.11977609 0.020884732 -0.15776405 -0.042859223
0003a0 f6 b6 09 3d ff c5 8a bd cd 7c 62 bd 67 2f fd bb
       0.03362175 -0.06776046 -0.0552948 -0.007726598
0003b0 a6 90 08 3e 4b 94 72 3d c7 86 0a 3d cb 14 37 3e
       0.13336429 0.059223454 0.03381994 0.17879026
0003c0 d0 c4 80 ba e2 e9 47 bd 5d 2c 28 3d 03 28 2e 3d
       -0.000982428 -0.048807032 0.041057933 0.042518627
0003d0 c9 fc e9 3d 6e 95 20 3d d1 42 39 3c bc 82 bb bd
       0.11425168 0.039205007 0.011307434 -0.09155795
0003e0 75 67 8d bd 2b a3 33 3d 97 e4 6a be bd e8 75 be
       -0.069044985 0.04385678 -0.22938763 -0.24014564
0003f0 dd 43 33 be 1d d9 e6 bd 01 d4 bc bc e4 74 c3 bd
       -0.17506357 -0.1127188 -0.02305031 -0.095437795

conv2.bias f4 [16]
000000 2b a3 22 3e 7a 5e 4a be bd 3a 7d 3e 21 02 0d 3d
       0.15882556 -0.19762602 0.24729438 0.03442586
000010 59 52 7c be 18 99 78 be 31 ee e2 bd e2 0a 02 3e
       -0.24640788 -0.2427715 -0.11080588 0.12699464
000020 b5 76 2f 3e 4b c4 52 be 29 e0 44 bd 24 90 33 3e
       0.17135127 -0.20582692 -0.04806534 0.17535454
000030 4f e8 c7 3d b2 52 08 3c 91 13 ad 3d 24 de 73 3d
       0.09761106 0.008320497 0.084509976 0.05953802

fc1.weight f4 [120, 400]
000000 52 8d 4f bd ce f1 e4 3c 80 00 0d 3b e9 b4 8d bd
       -0.050671883 0.027947333 0.002151519 -0.069192715
000010 40 ca 88 bd a0 49 00 3d 5f 31 26 3d fd e4 99 bd
       -0.06679201 0.031320214 0.040574428 -0.07514379
000020 c7 cc 71 bc 8a b9 1c bb 06 2b dd bb 86 d8 c1 bc
       -0.014758295 -0.00239143 -0.0067495136 -0.023662817
000030 2a 61 19 bd 5b cc 52 bd 70 27 64 3c 6f fe 2f bc
       -0.03744618 -0.05146442 0.013925418 -0.010741814
000040 5b ff a7 bd 67 6c 1b bd 54 63 7c 3c e4 04 5d bd
       -0.08203002 -0.037945177 0.015404541 -0.053959742
000050 cc e4 0c 3c 58 f8 5a bd c6 39 b8 bc 79 99 9f bd
       0.008599471 -0.053459495 -0.022488486 -0.077929445
000060 32 87 89 bd ce 1d 48 bd fb 83 17 bd 20 01 dd ba
       -0.067152396 -0.04885655 -0.0369911 -0.0016861297
000070 30 47 a7 bc 0e ab 92 bd d1 4e 62 3c 03 94 11 bd
       -0.020419687 -0.07161532 0.013812737 -0.035541546
000080 d1 56 5c bd 0f b1 21 bc 35 62 a9 bb 21 7d 85 bd
       -0.053793732 -0.009868874 -0.005169178 -0.06518007
000090 ee 11 16 bd 7b b3 b5 bc a0 21 d4 bc b9 f5 3c bc
       -0.036638193 -0.02218031 -0.02589494 -0.011533194
0000a0 0c 0e 12 bd f1 51 35 bd 4c 2d a6 3c 23 c3 b7 bc
       -0.035657927 -0.0442676 0.020285271 -0.022431916
0000b0 97 46 4c bd 18 63 aa bc 84 08 02 bd f4 62 42 3c
       -0.049872007 -0.020799205 -0.031746402 0.011864413
0000c0 6f 77 aa bc b5 65 f1 bc 46 68 ec bc 3f c1 04 3d
       -0.020808904 -0.029467443 -0.028858315 0.032410856
0000d0 7c 4c 41 bd 9b 92 16 3c 40 4f 6c bb 86 34 ea bc
       -0.04719208 0.009190227 -0.003605798 -0.028589498
0000e0 66 16 5f bd a0 47 95 bc ff 75 b5 bc 14 27 2b bd
       -0.05446472 -0.01822263 -0.022150991 -0.041785315
0000f0 6e 53 9e bb 53 b7 99 bc 15 ba 56 3c b7 11 b7 bc
       -0.004831723 -0.018764174 0.013105889 -0.022347314
000100 6e da 19 bd 89 eb 5c 3c e5 69 29 bd 3d e2 08 3c
       -0.037561826 0.01348389 -0.041360755 0.008354721
000110 58 6a 54 3c de a4 23 bd e5 b9 68 bb 75 c5 81 bc
       0.012964807 -0.03995215 -0.0035511192 -0.015841225
000120 af ec 21 3d ca 2d e7 3b 83 d5 c8 bb e7 81 0b bb
       0.03953236 0.007055019 -0.006128968 -0.0021287145
000130 33 81 0f 3d 44 b4 22 bd 9f 00 64 bd 43 b2 19 3d
       0.035035323 -0.039722696 -0.055664655 0.03752352
000140 d6 2e 3d bc fe 91 21 bd 8c c6 a4 3b 98 2f 35 bc
       -0.011546811 -0.03944587 0.0050285514 -0.0110587105
000150 6d 97 1d bd 7d 3b 27 3d 03 58 e9 3b cc 08 1d bc
       -0.03847449 0.040828217 0.0071210875 -0.009584617
000160 3a 32 4b 3d 1f 2a 0c 3d 4d 83 07 3b 9d 38 24 3d
       0.049608447 0.034219857 0.0020677627 0.040093053
000170 40 a3 90 bb b3 5f 09 bd f5 a7 09 bd 77 2b bb 3c
       -0.004413992 -0.03353853 -0.033607442 0.022847874
000180 b5 58 0b bd 47 b5 93 3c 07 51 32 bd cd d1 2e 3b
       -0.034020144 0.018030776 -0.043534305 0.0026675344
000190 a6 5d 9e bd 34 ab 64 3c b5 c5 5c bd ba 0c 05 bd
       -0.07732706 0.013956834 -0.053899486 -0.03248284
0001a0 1a ca 86 ba 1a ca 5f bc 31 36 59 bd 67 2a c8 bc
       -0.001028362 -0.013659025 -0.053030197 -0.024434282
0001b0 63 4d aa bc 9d 84 92 bd bf 89 0c bd 07 86 b1 bb
       -0.020788854 -0.071542 -0.034311052 -0.0054175886
0001c0 1a 58 8e bc 38 46 93 bc 7a 3c 8c bd c0 f0 3f 3d
       -0.017375994 -0.017977819 -0.068474725 0.046860456
0001d0 0d 56 39 bc 20 a9 c1 3c e7 eb ab 3a c5 ff 63 bd
       -0.01131202 0.023640215 0.0013116569 -0.055663843
0001e0 73 7e 31 3c 9a 3a 0c bd 57 6b 3f 3d 61 00 03 bd
       0.0108333705 -0.034235574 0.046733227 -0.031982783
0001f0 fb 14 7b bd 4d 56 72 3c 3d 03 40 bd e5 e7 1b bd
       -0.061299305 0.0147910835 -0.04687809 -0.03806295
000200 03 91 3b bd 67 89 03 bc 07 54 83 bc 69 65 41 bd
       -0.04579259 -0.008028365 -0.016031278 -0.047215853
000210 0d cd d6 bb 15 db 37 bd d3 86 f1 bc 7e 0e eb 3a
       -0.0065552057 -0.044886667 -0.029483235 0.0017933396
000220 75 22 1a bd d8 e3 36 bc 67 b4 8c bc a3 e0 ce bc
       -0.037630517 -0.011162721 -0.017175866 -0.0252536
000230 1a 24 0e 3c 1e 5a cb bc 96 db 82 bd c6 af 8d bd
       0.0086755995 -0.024823245 -0.06389539 -0.06918292
000240 ac 06 ff bc 55 70 88 bd df a6 7b ba b3 b7 4b bd
       -0.031131111 -0.06662051 -0.0009599756 -0.049735736
000250 47 75 92 3c c1 2f 80 bd db c3 45 3d 3d e3 8f bc
       0.017878188 -0.06259108 0.048282485 -0.01756441
000260 00 0e ed 3b 5a 83 2d 3c 67 22 7e 3c 53 a8 6f bc
       0.007234335 0.010590399 0.015511132 -0.014627534
000270 c7 b0 ca 3c c2 5e 0b 3d 9a 04 f1 ba 3d b8 30 bd
       0.024742497 0.034025915 -0.0018388212 -0.043144453
000280 3a 05 79 bc 5b 14 19 3d c7 bd 3b bd 67 26 f6 b8
       -0.015199 0.037372928 -0.045835283 -0.00011737347
000290 4a af 2a bd 1d 15 3c bd bd 1a 83 3c 50 15 8b 3c
       -0.041671075 -0.045918573 0.01600396 0.016977936
0002a0 30 c3 e6 3c 10 10 d1 bc 83 ef 47 bd 0d ef 9d 3b
       0.028169245 -0.025520355 -0.0488124 0.004819757
0002b0 7f 47 43 3d e8 73 2d 3d 53 a4 34 bd 49 3c 36 3c
       0.047675606 0.042346865 -0.044102024 0.011122772
0002c0 8a ff 2f bd 62 51 7b bd 16 ef f9 bc f6 57 7d bd
       -0.04296831 -0.06135691 -0.030509513 -0.061851464
0002d0 26 d4 df bc ca 10 9a 3c 79 5a 96 bd e3 22 24 bd
       -0.02732284 0.018806834 -0.07341475 -0.040072333
0002e0 04 40 05 3b ad 20 49 bd ed e6 ee ba 94 8b 10 bd
       0.0020332346 -0.049103428 -0.001822678 -0.035289362
0002f0 09 ca 70 3b 5e bb 2d bd ec 24 cf 3b df 89 82 bd
       0.0036741516 -0.042415015 0.00632154 -0.06373953
000300 08 f3 28 3c 56 be eb bc 27 8b 06 bd 03 30 25 bd
       0.010311849 -0.028777283 -0.03284755 -0.04032899
000310 11 b0 8f bc 70 38 ef 3c 6d 95 11 bb 2b 72 21 bd
       -0.01754001 0.029201716 -0.002221431 -0.03941552
000320 c8 a0 b5 3c 3d f5 bf bb 65 86 68 bc 54 33 64 bd
       0.022171393 -0.005858092 -0.014192198 -0.055713013
000330 cd af 36 bc b8 c1 51 3c 27 23 b0 bc d6 1c 5f bd
       -0.011150313 0.012802534 -0.021501137 -0.05447086
000340 d5 66 84 3c cf 92 1e bd 0e 17 5e bb d3 e3 ab 3c
       0.016162315 -0.038714226 -0.0033888253 0.020982658
000350 87 35 2f 3d 47 d3 6b bc f8 c1 7c bd 20 f9 c3 bc
       0.042775657 -0.014393634 -0.06170842 -0.023922503
000360 5a fa 01 bc 33 0b 9d 3c 47 e0 41 bd 20 5a 48 3c
       -0.007933224 0.01917038 -0.04733303 0.012228519
000370 9a 39 b7 bb ea 15 33 bd 27 c3 29 bd 5f 83 13 bd
       -0.0055915834 -0.04372207 -0.041445877 -0.036013957
000380 aa fd ec 3c 89 4b 7c bc 41 9e 93 bd 7d 7d cb bc
       0.02892955 -0.015398868 -0.07207919 -0.02484011
000390 32 01 db bc 17 dc c2 3a ca 74 87 bd d5 9d e0 bc
       -0.026733968 0.0014866617 -0.066140726 -0.02741901
0003a0 59 8e 53 bc 5c 24 3d bd ac f2 b3 3c 2e 30 92 bd
       -0.012912356 -0.046177253 0.0219663 -0.07138096
0003b0 eb b5 5f 3c 23 b5 95 bd b9 68 19 3a d8 da 92 3b
       0.0136542125 -0.0730994 0.00058520917 0.0044816546
0003c0 2a c6 ac 3c d1 1e 61 bd 51 b2 26 bd 15 cb 1b bd
       0.021090586 -0.05496103 -0.0406974 -0.03803547
0003d0 2d c0 b1 3c 90 f8 90 3c b7 17 39 bd 8f cf d8 bc
       0.021698082 0.017696649 -0.04518863 -0.02646616
0003e0 87 d2 98 bd 63 e5 35 bd f3 b8 9e bb d0 ed 88 bd
       -0.0746203 -0.044408213 -0.004843825 -0.06685984
0003f0 64 5e 53 bd bc 07 af bc 8e 16 cf bc a6 fd ba bc
       -0.05160369 -0.021365993 -0.02527931 -0.022826027

fc1.bias f4 [120]
000000 a0 00 24 bd 8a 32 e1 3d 94 a0 f9 bb 31 c4 d7 3d
       -0.04003966 0.10995968 -0.0076180194 0.105354674
000010 7f ff cf bc c0 02 91 39 1e e2 90 bd 9b 11 80 bd
       -0.025390385 0.00027658604 -0.070743784 -0.06253358
000020 d3 02 34 3e 09 19 8b bc 48 7d b0 3c dd f4 54 ba
       0.17579202 -0.016979711 0.021544114 -0.00081236457
000030 f6 2c a1 bc 12 e7 c4 bd e0 0b 36 3d 7e 21 03 be
       -0.01967476 -0.09614386 0.04444492 -0.12805745
000040 8c 06 97 bd 54 09 24 3e c8 b2 c0 bd 66 ba 14 3c
       -0.073742956 0.16019183 -0.094091 0.009077644
000050 0f e0 5d 3c 22 63 97 bc 0f df 81 3c 65 80 92 3d
       0.013542189 -0.018479887 0.015853433 0.071533956
000060 f3 8f b5 3d 45 5b 65 bd 7e 74 86 bd d8 e9 4e 3d
       0.08865347 -0.055995245 -0.06565188 0.05051598
000070 21 06 97 bc 59 b0 23 bd 93 72 fa bc 87 27 bf bc
       -0.01843554 -0.0399631 -0.030572211 -0.023334278
000080 9b f3 46 3d 87 d3 67 bd bf f4 99 bc 31 78 f4 3d
       0.048572164 -0.056598213 -0.018793462 0.11936987
000090 4e 2d 1c bd 10 78 a7 bd 45 b7 ac bd b6 67 fb 3d
       -0.038129143 -0.08177197 -0.084333934 0.12275641
0000a0 aa 82 8a bd 08 86 82 bd ad 8a 0e bd cb 9e be 3d
       -0.067632034 -0.06373221 -0.03480022 0.09307631
0000b0 da d9 5b 3d 51 9e 97 3c 88 27 97 3b 50 f2 26 3e
       0.053674556 0.018508108 0.004612867 0.16303372
0000c0 c1 8f 82 bd d3 78 fc 3d 1c cd 16 be e0 6e ae 3d
       -0.06375075 0.12327733 -0.1472668 0.085172415
0000d0 c7 e2 08 bc fe cb 6e bd c2 6b 9f bd 20 4e 1b 3c
       -0.008354849 -0.05830001 -0.07784225 0.009479076
0000e0 53 97 1a bc f6 7c ef 3d 80 c4 c1 bb 65 9f 85 3e
       -0.009435493 0.11693756 -0.005913317 0.2609817
0000f0 8c 5f 69 bd 11 7e de bc f1 53 33 bd 4f 14 ca bd
       -0.056975886 -0.027159723 -0.043781225 -0.09867155
000100 3b fb 72 3e 38 dc 39 bd 00 ea b5 3e 23 3d ef 3d
       0.2372865 -0.045376033 0.3553009 0.11681583
000110 9e 70 6f bd 7e 73 fd 3d a2 2c d6 bc fd d5 47 bd
       -0.05845701 0.12375544 -0.02614433 -0.04878806
000120 27 3a e3 bd a9 81 f9 3c c6 4a 5c be 88 16 05 bc
       -0.11095076 0.030457335 -0.21512899 -0.008123048
000130 52 99 c5 bc 3e 6a b2 bd db b0 d2 3d f8 1b d6 bd
       -0.02412096 -0.0871167 0.10287639 -0.10454553
000140 f8 cb 9b 3c 84 e5 1f be 22 67 aa bd 47 4f 86 be
       0.019018158 -0.15614897 -0.08320452 -0.2623236
000150 2e 68 8e bd 2a 76 71 3c 57 10 42 3e 2c 07 d3 bd
       -0.069534644 0.014737645 0.18951546 -0.10304102
000160 1c c7 2b bd 02 8a 53 3d c3 2a 5c bc d6 34 a5 3d
       -0.041937932 0.051645286 -0.01343793 0.08066718
000170 d9 fb 97 bd 92 01 83 bc d0 98 88 bd 8e 90 b3 bd
       -0.07421083 -0.01599196 -0.06669772 -0.08767806
000180 fb d0 10 be 0e 05 b7 3c 16 46 80 3b 5e de bd bd
       -0.1414222 0.022341277 0.003914605 -0.09270929
000190 f8 a8 69 3d 4e c9 19 3e de 3f 68 be 88 fc a6 bc
       0.057045907 0.15018198 -0.22680613 -0.020384088
0001a0 c2 6b ec 3d 94 18 e2 3b 09 f9 92 bd f9 90 81 3e
       0.11543991 0.0068999026 -0.07176406 0.25305918
0001b0 76 d6 f4 bc 33 a1 c4 bd 72 64 22 bd b6 75 12 3c
       -0.02988742 -0.09601059 -0.039646573 0.008939197
0001c0 4f 39 0d bd bb d3 ab bd 35 00 88 bd 23 6a 91 bd
       -0.03447848 -0.08389994 -0.066406645 -0.07100322
0001d0 f3 d6 22 be f3 ee f7 bd 23 9f 40 bd ec b8 10 bd
       -0.15902309 -0.12106123 -0.047026765 -0.035332605

fc2.weight f4 [84, 120]
000000 ae 9b 01 3d 03 94 b6 bd 78 64 8f bd a4 e2 53 3e
       0.03164261 -0.0891495 -0.07001585 0.20691925
000010 3f 74 31 bd ba 85 54 3e 4c 7d 3d be 9c a8 22 39
       -0.04332375 0.20754138 -0.18504828 0.00015512336
000020 6e 09 2f bd 86 8a 5b 3d e4 cd 3d 3e 15 b5 e4 3c
       -0.042733602 0.053598903 0.18535572 0.027918378
000030 2a 90 66 3d 87 46 08 3d 93 03 16 3e 33 f2 42 3d
       0.05628983 0.033270385 0.14649801 0.04759426
000040 b4 ce d2 3d 9c 94 c9 bd 4a 12 8a ba 0c c7 49 3d
       0.10293332 -0.09842798 -0.0010534015 0.04926209
000050 19 55 9e 3d 05 63 3c 3e 41 66 25 3e 8b 71 d5 3d
       0.07731075 0.18397148 0.16152288 0.10422047
000060 b3 42 c5 3d 80 9f d0 3c 3c a0 9e bd 54 9d 3b 3d
       0.096318625 0.02546668 -0.07745406 0.045804337
000070 b4 7b 04 be 16 a4 7d 3d 97 81 cf 39 b3 4b ad bd
       -0.12937814 0.061924063 0.0003957867 -0.08461704
000080 e5 8d 43 3d 2d 3b 8b bd 3a f1 99 bc cc 6b a1 bd
       0.047742743 -0.06798396 -0.018791784 -0.07881889
000090 03 8c fd bd 5a 9f 4b 3e 58 b6 94 3d f7 e9 da bd
       -0.12380221 0.19885007 0.07261342 -0.106891565
0000a0 d1 c2 e1 bd 8a 99 af bd a9 5e 91 be 43 34 a8 bd
       -0.110234864 -0.08574207 -0.28392532 -0.08213093
0000b0 b5 06 f9 bd a9 32 0e be 71 95 12 bd d7 5a 5e 3d
       -0.121594824 -0.13886513 -0.03578705 0.05428585
0000c0 ea c7 61 bb 22 6d 2e 3e 12 4b cf bd 1b fc dc 3c
       -0.0034451433 0.17033818 -0.101217404 0.026975682
0000d0 44 1e 75 ba a9 37 dd 3c c2 fa 6a bc 70 37 f2 bd
       -0.0009350518 0.02700408 -0.014342012 -0.1182698
0000e0 bd 1f 7f 3c 86 c2 d9 3d 9a a5 5f be c6 b2 a7 bd
       0.015571532 0.106328055 -0.21840516 -0.08188395
0000f0 d2 d1 36 bd dd 77 2b bd 0d f5 24 3e a5 ce 11 3e
       -0.044633694 -0.041862357 0.16109104 0.14238985
000100 d1 e0 b8 3c 3e 3c 20 be 93 5c a6 3d bc 24 1f 3e
       0.022568138 -0.1564798 0.08123126 0.15541357
000110 22 56 5e 3d a6 85 a6 3c f4 7c e7 3d 7f cf 2c 3c
       0.05428136 0.0203274 0.1130313 0.010547518
000120 3c 1c 81 3e 96 8f 1f be 2b 20 b1 bc 32 d4 18 be
       0.25216854 -0.15582117 -0.021621784 -0.14924696
000130 bd 01 a6 3c 64 5a 27 bd 74 ab 1f be 8b 7f 09 be
       0.0202645 -0.040857688 -0.15592748 -0.1342756
000140 24 da ac 3d b7 fd 80 3e 2c 0a fc 3d 0b e3 bc bd
       0.084400445 0.2519357 0.12306628 -0.092229925
000150 7b e3 a1 bc 99 32 23 bd 4a 30 8d 3e d4 8b 39 3d
       -0.019761791 -0.039843176 0.27575904 0.045299366
000160 3d d1 a7 3d 83 3a 08 3e fa f5 ae 3d 60 11 c0 bc
       0.08194206 0.1330357 0.0854301 -0.023445785
000170 c5 c6 e7 3d 4d 8e 86 3d 49 9f 95 3d dc 1d 55 bd
       0.11317209 0.065701105 0.07305772 -0.05203043
000180 ee ba 82 3b 40 13 91 bd 3c d2 93 3d 3f e3 2b 3e
       0.003989569 -0.0708375 0.072178334 0.16785906
000190 d9 6d 9d 3d d9 68 13 3d 26 6a 8b ba ec dd ce 3a
       0.076869674 0.035988662 -0.0010636493 0.0015782691
0001a0 e6 d8 51 3e 96 33 c2 bd d6 39 f5 bb af 65 28 3e
       0.20492896 -0.094824955 -0.007483701 0.16445039
0001b0 e7 bb 54 bd bf f0 37 be 5f 42 39 3d d3 f9 c7 3d
       -0.05193701 -0.17962931 0.045229312 0.09764447
0001c0 77 e2 4a bd 52 16 a0 3b 54 44 b6 bd 70 2d 98 3d
       -0.04953238 0.0048854733 -0.08899751 0.074305415
0001d0 69 d4 2a be b9 d5 95 3d 78 40 e0 3d 94 4e 98 3e
       -0.1668259 0.07316155 0.109497964 0.2974745
0001e0 43 09 76 3c 78 ba c5 bc 2a f4 ed 3c 05 3f 6b 3b
       0.015016857 -0.024136767 0.02904709 0.0035895717
0001f0 e4 2c b3 bd 6d cb 2a bd cc 0a ad bd 2e eb 48 bc
       -0.087487966 -0.04169791 -0.08449325 -0.012263102
000200 59 8b d9 ba 95 27 5b bd cb 5f 85 3d d9 16 93 3d
       -0.0016597315 -0.053504545 0.06512412 0.07182092
000210 22 17 08 bc 35 68 27 bd af e5 82 bd 0d 15 a7 3c
       -0.008306297 -0.040870864 -0.06391465 0.02039578
000220 70 c6 ce bc ca 78 13 3d fa 7d 94 bc 79 2b 83 3d
       -0.025241107 0.036003865 -0.018126477 0.06404776
000230 8d b9 33 bd f0 12 c8 bd 11 55 80 3d 4d f6 45 bd
       -0.043878127 -0.09769237 0.06266225 -0.048330594
000240 55 04 ae bd 9a a0 72 3d 8d dc 7d 3d 74 a5 59 3c
       -0.0849692 0.059235193 0.06197791 0.013284076
000250 01 15 25 3d 3c 59 17 bd c8 01 8d bd 1c f3 21 3d
       0.040303234 -0.036950335 -0.06885105 0.039538488
000260 64 83 90 bd ce 07 2a bd b9 ac 6f 3d d7 36 f1 bc
       -0.07056311 -0.04151135 0.05851433 -0.029445095
000270 d2 14 b3 bd 94 2c ab bc a1 bb 3e 3c be 46 a4 bd
       -0.087442055 -0.02089528 0.011641414 -0.080213055
000280 26 13 76 bd 34 b2 2c 3d 82 27 8e 3c e4 f7 47 bd
       -0.060076855 0.042162135 0.017352823 -0.04882039
000290 19 32 cc bd 62 9e d8 bc 51 14 68 bd 3f f8 8f bd
       -0.09970493 -0.02644271 -0.05666 -0.07029771
0002a0 17 cd 86 3d 8a a6 47 3d 82 b3 62 bd fc 0d b1 3d
       0.065820865 0.04874281 -0.055346973 0.086452454
0002b0 e6 ee a6 bd 96 c7 d0 3c 94 e8 34 bd 04 49 77 3d
       -0.08151035 0.025485795 -0.044167116 0.060372368
0002c0 ac e9 df bc 10 cb 01 3d bf 17 8e bd 6e f1 14 bd
       -0.027333103 0.031687796 -0.06938123 -0.036363058
0002d0 8b 4e 2a 3d 52 fe 43 bd 27 53 c4 bd cc 8a 99 bd
       0.04157881 -0.04784996 -0.095861726 -0.074971765
0002e0 bc ac 9e bc e6 fb 62 bd 59 40 79 3d d7 c2 82 3d
       -0.019369476 -0.05541601 0.060852382 0.06384819
0002f0 d9 43 8d 3d 98 84 95 3b ac 41 ac 3d f3 d6 b1 bb
       0.068977065 0.0045629255 0.084109634 -0.0054272353
000300 f9 15 c5 bd 59 0f b1 bb 35 90 55 3d 09 45 dd bd
       -0.096233316 -0.005403441 0.05213948 -0.10804183
000310 a0 1c 61 3d ea 31 f1 bc a6 b5 a5 3d 25 38 d5 bb
       0.05495894 -0.029442746 0.08091287 -0.006506937
000320 fc 76 dd bc 9f 7f 9e bd c7 aa 8c 3d fb b2 2b bc
       -0.027034275 -0.077391855 0.06868511 -0.010479684
000330 3d ba dd bc 26 5f 85 bd 63 77 1a 3c 4a 8b c8 bd
       -0.027066344 -0.06512289 0.009427878 -0.09792192
000340 44 ae 3c 3d 44 eb d7 bc ae 5b ba bd 50 85 6d bd
       0.04606463 -0.0263573 -0.09099518 -0.057988465
000350 87 d9 8b bc 62 02 45 bd f2 ca 92 3d 0a 40 96 3d
       -0.017071499 -0.048097976 0.07167615 0.07336433
000360 f5 3e 9d 3d 8b 4b 89 3c 61 1b 08 3d 04 4f 8e ba
       0.07678024 0.016759655 0.033229236 -0.0010857289
000370 4d 00 b3 bd 5f 30 63 3d 9a 3c 98 bd be 42 36 3d
       -0.08740292 0.055466052 -0.07433434 0.044497244
000380 bc ca 67 3d 45 00 85 3d a2 a1 3b bd de 37 29 bb
       0.056589827 0.06494192 -0.045808442 -0.0025820653
000390 46 9d 8c 3c a8 08 5a 3d c8 32 62 b9 de 51 ca 3c
       0.017164838 0.05323091 -0.00021571957 0.02469724
0003a0 f1 f9 55 bd 7d 6c b7 bd 5e 3f 81 bd eb 2d a0 bc
       -0.052240316 -0.08956239 -0.063109145 -0.019553145
0003b0 39 35 64 3c 46 1d a3 3d 07 28 4b 3d 5c 51 ca bd
       0.013928705 0.07964568 0.04959872 -0.09878799
0003c0 02 06 e5 3c 32 90 59 bd 14 1d 45 bd 7a 8b 06 3e
       0.027956966 -0.05311603 -0.048123434 0.13139144
0003d0 f5 ce 33 3d 37 92 a6 bd dc 52 45 bd ff 9e e3 3d
       0.04389854 -0.08133357 -0.048174724 0.111143105
0003e0 da b1 94 3d 56 60 68 3d 9f 60 67 3b e7 aa 0d bd
       0.07260485 0.056732498 0.0035305393 -0.034586813
0003f0 9c 8b 48 bd c0 3d 10 bd 8a f9 13 be fa b2 9a 3c
       -0.048961267 -0.03521514 -0.1445066 0.01888417

fc2.bias f4 [84]
000000 04 24 0b 3d ca d0 ac bc 8c 7a 4e 3d e9 b4 31 bc
       0.033969894 -0.021095652 0.05040984 -0.010846355
000010 8d 54 2f 3e b2 5e 92 bd 59 9b 46 bd 86 28 93 bd
       0.17122097 -0.07146968 -0.048487995 -0.071854636
000020 d6 01 9c 3d cc d9 00 3d 0b 43 b3 3c ba d5 78 bc
       0.07617538 0.031457707 0.021882555 -0.015187675
000030 1f a6 6b bd 16 55 de bd 45 52 33 bd a4 47 7c bd
       -0.057531472 -0.108560726 -0.04377963 -0.06159176
000040 5a 61 3b bd 9d 6a d1 bd f0 da 28 3d cd 3d 27 bc
       -0.04574714 -0.10225413 0.04122442 -0.010207606
000050 ca 8b 25 3e 85 e3 78 bd 49 f0 1c be a6 af 07 3d
       0.16166607 -0.060763855 -0.15326037 0.033126496
000060 09 27 66 3d 6d 3a 93 bc 73 af 84 bd a0 77 b0 bc
       0.05618957 -0.017972196 -0.06478777 -0.021541417
000070 e1 68 cb 3c 4c 33 ee bd 59 ba 1b 3e 80 e1 cd bd
       0.024830284 -0.11630878 0.15207805 -0.10052776
000080 37 1c 32 3e 73 7d cc 3c 95 98 79 bc 1c b9 34 bd
       0.17393576 0.024962163 -0.015234132 -0.044121847
000090 21 86 3e 3e e4 de ab 3d 07 af 95 3d d6 86 6e 3d
       0.18605854 0.083921224 0.073087744 0.05823406
0000a0 95 d8 0f 3d d6 39 64 bd 61 ef 7f 3d f5 d7 03 be
       0.035118658 -0.05571922 0.06248415 -0.1287535
0000b0 fb 39 b3 3d 9e 2c 9a 3d e2 2a aa 3d ec 24 36 bd
       0.08751293 0.07528041 0.083089605 -0.044468805
0000c0 f6 81 ad 3d 72 c2 36 bd df 5f 04 be a4 db d8 3b
       0.08472054 -0.04461903 -0.12927197 0.00661798
0000d0 20 77 b0 3d 7c c2 15 3e ff 3e 6a 3d b1 48 de bd
       0.08616471 0.14624971 0.057188984 -0.108537085
0000e0 7e cd 1f 3c 23 96 0f be 65 b8 7c 3d 0b a3 0f 3d
       0.009753583 -0.14022116 0.06169929 0.0350676
0000f0 b6 cc 1f 3e 75 f5 6d bd 2f bd 10 3d 65 0a 0c 3e
       0.15605435 -0.058095414 0.03533667 0.1367584
000100 a4 20 9e bc 5a f4 8a 3d 15 ed 2a 3d ee f5 98 3c
       -0.019302674 0.067848876 0.041730005 0.018671956
000110 6a 0a 1c 3b 31 f6 1d 3d cd f5 10 bd cf be 7d bd
       0.0023809918 0.038564865 -0.035390664 -0.061949547
000120 ac 68 94 3c c5 9c 2e 3e d7 dc 28 bd 8d 1a ac 3d
       0.018116318 0.1705199 -0.041226234 0.08403502
000130 69 9d ea 3a f5 c5 61 bc 2a 80 d2 3d 75 4b 87 bd
       0.0017899695 -0.013780107 0.102783516 -0.06606189
000140 af fb 9a bd 70 3a c2 bd 1b 60 cd bd 3b f1 94 bd
       -0.07567536 -0.09483802 -0.10028096 -0.072725736

fc3.weight f4 [10, 84]
000000 f4 52 3e bd 45 bc a2 3d 66 f6 3f be 6f d2 41 be
       -0.04646583 0.07946066 -0.18746337 -0.1892793
000010 53 0c 8e be e9 e0 d7 bd f0 d4 c1 3c 2b a9 25 3d
       -0.27743778 -0.10540945 0.023661107 0.040444534
000020 bc 3d 97 be 27 ee 20 3e 3b b3 95 be 3a 9c 81 be
       -0.29539287 0.15715848 -0.29238304 -0.25314504
000030 10 01 b7 bd 0b f7 f8 bd 58 5b 61 3d 34 5e 87 bb
       -0.089357495 -0.12156495 0.055018753 -0.004131103
000040 23 d0 65 be aa e2 3f 3d 6a 98 99 be 13 c8 a1 3d
       -0.22442679 0.046847023 -0.29999095 0.07899489
000050 70 07 22 3d ad 4e 37 bd dc df 19 be 4f fb cf 3c
       0.039557874 -0.044752765 -0.15026802 0.025388388
000060 e6 e4 06 bd 7d e4 4d 3e cf c5 20 be e1 5a f8 3d
       -0.03293314 0.20106693 -0.15700458 0.12126709
000070 a8 e3 84 bd 2c 79 c8 bd 87 04 64 3c 5f 33 89 bd
       -0.064887345 -0.09788737 0.013917095 -0.066992514
000080 d0 3f 8e be 7d bf 5e 3d 84 f8 d4 3d 24 49 ab bd
       -0.2778306 0.054381836 0.10398963 -0.0836356
000090 79 98 20 be 16 8a 27 3e 87 5e ef 3d eb 5f 35 be
       -0.15683164 0.1636127 0.116879515 -0.17712371
0000a0 05 16 9a 3d be 8a 3f be 3c 83 29 3e 1f 6d a4 3c
       0.07523731 -0.1870527 0.16553968 0.020071564
0000b0 26 2b 9a be 35 6d b2 3d bd 2e 40 be 8c d5 43 3e
       -0.30111045 0.08712236 -0.18767829 0.1912443
0000c0 b3 58 89 3d fa 42 5f be 9b e2 1b 3e da 9e 9d 3d
       0.06706371 -0.21802893 0.15223162 0.07696314
0000d0 67 a0 6d be 9c 7e f4 3d 11 ff d9 3c ad 29 11 be
       -0.2320572 0.11938211 0.026610883 -0.14176054
0000e0 8c 3e eb 3d 5a 92 77 3e cc 1f 85 3e 0c 5e ce 3d
       0.11486539 0.24176922 0.26000822 0.10076532
0000f0 f5 e4 c2 3d 8a ea 78 3e e9 b9 96 be ff 2e d2 bd
       0.09516326 0.2430822 -0.29438713 -0.1026287
000100 bd bb 85 3d 88 5e 90 be 4d 6d 5c bc b3 51 2f 3e
       0.06529949 -0.28197122 -0.013453794 0.1712101
000110 61 1f 69 be 33 cd 00 3e 50 c3 81 bd 47 63 97 bd
       -0.22765876 0.12578277 -0.06336081 -0.073919825
000120 f8 71 3f bc e4 47 21 3e e3 65 c0 3d a5 29 ed bd
       -0.011684887 0.1575008 0.09394433 -0.11580209
000130 ea 5a f5 3d 96 c9 14 3e c7 2d 4a 3d ee 8d 5a 3d
       0.11980231 0.14530024 0.049360063 0.05335801
000140 10 fb 3c bd b6 ed 0d be 14 26 ce 3d 04 4f f9 3c
       -0.04613787 -0.13860211 0.100658566 0.030433185
000150 d4 0f f6 3c e6 16 d9 3c f6 5c 6e bd e5 22 77 be
       0.030036844 0.026500177 -0.058194123 -0.24134405
000160 95 fe 9f be 71 ae 17 be 8a 3c 74 be a7 b8 48 bd
       -0.31248918 -0.14812638 -0.23851219 -0.049004223
000170 06 15 d7 3d ce 4b 33 bc b0 c5 4c 3e 9a 96 09 be
       0.10502057 -0.010943366 0.19997287 -0.13436356
000180 cc 10 d4 bb 50 8f e2 bc 69 ec b8 3d d0 28 1f bd
       -0.006471729 -0.027656227 0.09029467 -0.03885728
000190 c0 3a 2a be 08 be 36 3b 1b b6 ed bc 11 a9 36 3e
       -0.16623974 0.0027884264 -0.029017499 0.17837931
0001a0 34 4a 74 be 01 ea 3e bd 61 f5 63 3e 12 27 0a bd
       -0.23856431 -0.046609882 0.22261573 -0.033728667
0001b0 28 d5 06 3d 68 16 a0 bc 26 b0 de bd de 76 0f 3e
       0.032918125 -0.019541934 -0.108734414 0.14010188
0001c0 c4 3b 82 be 19 69 36 bd 71 38 9d be a1 3c a5 3d
       -0.25436223 -0.044533823 -0.30707124 0.08068205
0001d0 da e5 98 be a5 bb 21 3e 02 80 ef 3d 01 d6 8d bd
       -0.29862863 0.15794237 0.116943374 -0.06925584
0001e0 7e 84 87 be 64 27 1f be fa 8f 97 be 40 67 0f 3e
       -0.2646827 -0.1554237 -0.29602033 0.1400423
0001f0 45 41 57 bc b0 63 6b 3e 23 b1 40 be 66 d0 10 3e
       -0.01313812 0.22987247 -0.18817572 0.14141998
000200 de 4b 47 be 3d 87 25 bd 51 15 88 be 94 10 19 3e
       -0.19462535 -0.040412176 -0.26578763 0.1494773
000210 56 00 4d be 74 bf 23 3e a6 7a 31 3e 69 e0 92 3d
       -0.2001966 0.15991002 0.17331943 0.07171709
000220 da ea a3 3d 6a 64 b1 bd ef 0f 61 bd de 07 1e bc
       0.08003779 -0.086617306 -0.054946836 -0.00964543
000230 82 f4 90 be 93 cd 48 3e 9f cd 81 be 85 7b 74 3e
       -0.28311545 0.1960967 -0.2535219 0.23875244
000240 53 3b bf bd 34 49 31 be 88 df 5e be 99 2a 0b be
       -0.09337487 -0.17313081 -0.21764958 -0.13590468
000250 38 c3 77 3e 1d 1c 71 3d 20 79 2a 3e dd 24 97 be
       0.24195564 0.0588647 0.16647768 -0.29520312
000260 57 fb 1e 3e 19 98 2e be f2 42 95 be 57 8e 97 be
       0.15525566 -0.17050208 -0.29152638 -0.29600784
000270 20 4b 08 3e b5 8f 91 be f8 31 e6 3d c6 e2 73 be
       0.13309908 -0.28429952 0.112399995 -0.23816976
000280 d0 7b 75 3d fe 6f 09 3d a0 34 9a be e0 67 80 bd
       0.05993253 0.03355407 -0.30118275 -0.062698126
000290 3d 79 fc 3c ac db 87 3e e6 59 eb 3d 45 33 fc 3d
       0.03081953 0.26534784 0.11491756 0.123144664
0002a0 8d 3e 93 be 70 16 97 3b 8c f7 0a 3e 9a 66 36 be
       -0.2875866 0.004610829 0.13570994 -0.17812577
0002b0 5f 21 60 3d 18 0d 8d bd ae 33 2f 3d 0f 20 49 3d
       0.054719325 -0.06887263 0.042773895 0.04910284
0002c0 56 8b 36 bd ed 00 e1 3d 8e 4f ac bd 01 a2 46 be
       -0.044566475 0.10986505 -0.08413611 -0.19397737
0002d0 39 3f 8c 3d 44 dc 0b be 1f 68 df bd e4 de cc bd
       0.06847996 -0.13658243 -0.109085314 -0.100034505
0002e0 56 d8 ea 3d 92 f3 1b 3d e8 7a e8 3d cf 8b 94 be
       0.11467044 0.038074084 0.113515675 -0.29012915
0002f0 fa 88 5d be ed 96 3d 3d 59 9a aa bd dc 06 d2 3d
       -0.21634284 0.046286512 -0.08330221 0.102552146
000300 af 1e 64 3d 55 02 96 3d 58 a4 b4 3d f0 a6 bc bb
       0.055693325 0.073246635 0.088204086 -0.005757205
000310 8b 11 3d be 18 a5 0a 3c 09 3e 05 3d c0 6f b2 3c
       -0.18463723 0.008462213 0.032529864 0.021781802
000320 dd 25 7c 3d 42 32 f0 bd f7 6a df 3c 9a 2a 2e 3d
       0.061559547 -0.11728336 0.027272684 0.042521097
000330 a2 e5 5c 3d 73 91 4d be fa 90 07 3e ed c9 cb 3d
       0.053929932 -0.20075016 0.13238898 0.09950624
000340 ec 5f 89 3d f0 67 f0 bc 84 33 50 3e 45 25 11 be
       0.06707749 -0.029346436 0.20332152 -0.14174373
000350 3d a5 2e be 92 83 d5 bc b6 38 22 3e 27 e9 34 3e
       -0.17055221 -0.026063714 0.15841946 0.17667066
000360 e1 02 d3 bd 71 e7 a3 3d 55 73 4d be 41 47 12 bd
       -0.103032835 0.08003128 -0.20063527 -0.035712484
000370 14 23 21 be b1 8e 06 be 30 e2 80 3c 73 aa c9 3c
       -0.15736037 -0.1314037 0.015732855 0.02461741
000380 c3 2f 49 3e 37 c5 1d be d3 b2 65 3e 6f c2 17 be
       0.19647126 -0.15407263 0.22431497 -0.14820264
000390 a9 60 f3 3d af aa 78 bd 1d 45 99 bd 37 31 d9 3d
       0.11883671 -0.06070965 -0.074838854 0.1060509
0003a0 bc 8b f6 3d c7 75 01 3d 2e 03 87 be 84 68 26 3e
       0.12038371 0.03160646 -0.26369613 0.16250807
0003b0 3d 57 3c be 15 36 9a bd e8 32 c4 3d dc e1 7e be
       -0.18392654 -0.075298466 0.09580022 -0.24890846
0003c0 33 a3 ae bc fc 61 1c 3e c9 86 4d be b8 78 43 be
       -0.021318054 0.15271753 -0.20070948 -0.1908902
0003d0 63 42 89 be c1 9e 38 3e e4 18 c9 3d c5 5a 3d 3d
       -0.26808462 0.1802931 0.09819201 0.046229143
0003e0 0e 69 cd bd f7 36 91 bd f9 5f ba bc 15 f7 93 bc
       -0.10029803 -0.07090562 -0.022750841 -0.018062154
0003f0 81 96 a2 bc 94 1f d8 bc 34 3e 09 3e 6a a5 1a 3e
       -0.019847156 -0.026382245 0.13402635 0.15102163
